program(1.0)
[buildInfo = dict<tensor<string, []>, tensor<string, []>>({{"coremlc-component-MIL", "3500.14.1"}, {"coremlc-version", "3500.32.1"}, {"coremltools-component-torch", "2.4.0"}, {"coremltools-source-dialect", "TorchScript"}, {"coremltools-version", "8.3.0"}})]
{
    func main<ios17>(tensor<int32, [1]> audio_length, tensor<fp32, [1, 128, 17]> audio_signal, tensor<fp32, [17, 1, 70, 512]> cache_last_channel, tensor<int32, [1]> cache_last_channel_len, tensor<fp32, [17, 1, 512, 8]> cache_last_time, tensor<fp32, [1, 128, 16]> pre_cache) {
            tensor<int32, []> var_9 = const()[name = tensor<string, []>("op_9"), val = tensor<int32, []>(2)];
            tensor<bool, []> full_input_interleave_0 = const()[name = tensor<string, []>("full_input_interleave_0"), val = tensor<bool, []>(false)];
            tensor<string, []> pre_cache_to_fp16_dtype_0 = const()[name = tensor<string, []>("pre_cache_to_fp16_dtype_0"), val = tensor<string, []>("fp16")];
            tensor<string, []> audio_signal_to_fp16_dtype_0 = const()[name = tensor<string, []>("audio_signal_to_fp16_dtype_0"), val = tensor<string, []>("fp16")];
            tensor<fp16, [1, 128, 17]> audio_signal_to_fp16 = cast(dtype = audio_signal_to_fp16_dtype_0, x = audio_signal)[name = tensor<string, []>("cast_193")];
            tensor<fp16, [1, 128, 16]> pre_cache_to_fp16 = cast(dtype = pre_cache_to_fp16_dtype_0, x = pre_cache)[name = tensor<string, []>("cast_194")];
            tensor<fp16, [1, 128, 33]> full_input_cast_fp16 = concat(axis = var_9, interleave = full_input_interleave_0, values = (pre_cache_to_fp16, audio_signal_to_fp16))[name = tensor<string, []>("full_input_cast_fp16")];
            tensor<int32, []> var_12 = const()[name = tensor<string, []>("op_12"), val = tensor<int32, []>(16)];
            tensor<int32, [1]> value_1 = add(x = audio_length, y = var_12)[name = tensor<string, []>("value_1")];
            tensor<int32, [3]> var_28_begin_0 = const()[name = tensor<string, []>("op_28_begin_0"), val = tensor<int32, [3]>([0, 0, 17])];
            tensor<int32, [3]> var_28_end_0 = const()[name = tensor<string, []>("op_28_end_0"), val = tensor<int32, [3]>([1, 128, 33])];
            tensor<bool, [3]> var_28_end_mask_0 = const()[name = tensor<string, []>("op_28_end_mask_0"), val = tensor<bool, [3]>([true, true, true])];
            tensor<fp16, [1, 128, 16]> var_28_cast_fp16 = slice_by_index(begin = var_28_begin_0, end = var_28_end_0, end_mask = var_28_end_mask_0, x = full_input_cast_fp16)[name = tensor<string, []>("op_28_cast_fp16")];
            tensor<string, []> var_28_cast_fp16_to_fp32_dtype_0 = const()[name = tensor<string, []>("op_28_cast_fp16_to_fp32_dtype_0"), val = tensor<string, []>("fp32")];
            tensor<int32, []> var_62 = const()[name = tensor<string, []>("op_62"), val = tensor<int32, []>(-1)];
            tensor<int32, []> var_64 = const()[name = tensor<string, []>("op_64"), val = tensor<int32, []>(1)];
            tensor<int32, [3]> x_1_perm_0 = const()[name = tensor<string, []>("x_1_perm_0"), val = tensor<int32, [3]>([0, 2, 1])];
            tensor<string, []> cast_0_to_fp16_dtype_0 = const()[name = tensor<string, []>("cast_0_to_fp16_dtype_0"), val = tensor<string, []>("fp16")];
            tensor<fp16, []> _inversed_108_y_0_to_fp16 = const()[name = tensor<string, []>("_inversed_108_y_0_to_fp16"), val = tensor<fp16, []>(0x1p-1)];
            tensor<fp16, [1]> value_1_to_fp16 = cast(dtype = cast_0_to_fp16_dtype_0, x = value_1)[name = tensor<string, []>("cast_191")];
            tensor<fp16, [1]> _inversed_108_cast_fp16 = mul(x = value_1_to_fp16, y = _inversed_108_y_0_to_fp16)[name = tensor<string, []>("_inversed_108_cast_fp16")];
            tensor<fp16, []> var_109_to_fp16 = const()[name = tensor<string, []>("op_109_to_fp16"), val = tensor<fp16, []>(0x1p+0)];
            tensor<fp16, [1]> lengths_1_cast_fp16 = add(x = _inversed_108_cast_fp16, y = var_109_to_fp16)[name = tensor<string, []>("lengths_1_cast_fp16")];
            tensor<fp16, [1]> lengths_3_cast_fp16 = floor(x = lengths_1_cast_fp16)[name = tensor<string, []>("lengths_3_cast_fp16")];
            tensor<fp16, []> _inversed_116_y_0_to_fp16 = const()[name = tensor<string, []>("_inversed_116_y_0_to_fp16"), val = tensor<fp16, []>(0x1p-1)];
            tensor<fp16, [1]> _inversed_116_cast_fp16 = mul(x = lengths_3_cast_fp16, y = _inversed_116_y_0_to_fp16)[name = tensor<string, []>("_inversed_116_cast_fp16")];
            tensor<fp16, []> var_117_to_fp16 = const()[name = tensor<string, []>("op_117_to_fp16"), val = tensor<fp16, []>(0x1p+0)];
            tensor<fp16, [1]> lengths_7_cast_fp16 = add(x = _inversed_116_cast_fp16, y = var_117_to_fp16)[name = tensor<string, []>("lengths_7_cast_fp16")];
            tensor<fp16, [1]> lengths_9_cast_fp16 = floor(x = lengths_7_cast_fp16)[name = tensor<string, []>("lengths_9_cast_fp16")];
            tensor<fp16, []> _inversed_124_y_0_to_fp16 = const()[name = tensor<string, []>("_inversed_124_y_0_to_fp16"), val = tensor<fp16, []>(0x1p-1)];
            tensor<fp16, [1]> _inversed_124_cast_fp16 = mul(x = lengths_9_cast_fp16, y = _inversed_124_y_0_to_fp16)[name = tensor<string, []>("_inversed_124_cast_fp16")];
            tensor<fp16, []> var_125_to_fp16 = const()[name = tensor<string, []>("op_125_to_fp16"), val = tensor<fp16, []>(0x1p+0)];
            tensor<fp16, [1]> lengths_13_cast_fp16 = add(x = _inversed_124_cast_fp16, y = var_125_to_fp16)[name = tensor<string, []>("lengths_13_cast_fp16")];
            tensor<fp16, [1]> lengths_cast_fp16 = floor(x = lengths_13_cast_fp16)[name = tensor<string, []>("lengths_cast_fp16")];
            tensor<string, []> cast_9_dtype_0 = const()[name = tensor<string, []>("cast_9_dtype_0"), val = tensor<string, []>("int32")];
            tensor<int32, [1]> input_1_axes_0 = const()[name = tensor<string, []>("input_1_axes_0"), val = tensor<int32, [1]>([1])];
            tensor<fp16, [1, 33, 128]> x_1_cast_fp16 = transpose(perm = x_1_perm_0, x = full_input_cast_fp16)[name = tensor<string, []>("transpose_241")];
            tensor<fp16, [1, 1, 33, 128]> input_1_cast_fp16 = expand_dims(axes = input_1_axes_0, x = x_1_cast_fp16)[name = tensor<string, []>("input_1_cast_fp16")];
            tensor<int32, [8]> input_3_pad_0 = const()[name = tensor<string, []>("input_3_pad_0"), val = tensor<int32, [8]>([0, 0, 0, 0, 2, 1, 2, 1])];
            tensor<string, []> input_3_mode_0 = const()[name = tensor<string, []>("input_3_mode_0"), val = tensor<string, []>("constant")];
            tensor<fp16, []> const_0_to_fp16 = const()[name = tensor<string, []>("const_0_to_fp16"), val = tensor<fp16, []>(0x0p+0)];
            tensor<fp16, [1, 1, 36, 131]> input_3_cast_fp16 = pad(constant_val = const_0_to_fp16, mode = input_3_mode_0, pad = input_3_pad_0, x = input_1_cast_fp16)[name = tensor<string, []>("input_3_cast_fp16")];
            tensor<string, []> input_5_pad_type_0 = const()[name = tensor<string, []>("input_5_pad_type_0"), val = tensor<string, []>("valid")];
            tensor<int32, [2]> input_5_strides_0 = const()[name = tensor<string, []>("input_5_strides_0"), val = tensor<int32, [2]>([2, 2])];
            tensor<int32, [4]> input_5_pad_0 = const()[name = tensor<string, []>("input_5_pad_0"), val = tensor<int32, [4]>([0, 0, 0, 0])];
            tensor<int32, [2]> input_5_dilations_0 = const()[name = tensor<string, []>("input_5_dilations_0"), val = tensor<int32, [2]>([1, 1])];
            tensor<int32, []> input_5_groups_0 = const()[name = tensor<string, []>("input_5_groups_0"), val = tensor<int32, []>(1)];
            tensor<fp16, [256, 1, 3, 3]> encoder_pre_encode_conv_0_weight_to_fp16 = const()[name = tensor<string, []>("encoder_pre_encode_conv_0_weight_to_fp16"), val = tensor<fp16, [256, 1, 3, 3]>(BLOBFILE(path = tensor<string, []>("@model_path/weights/weight.bin"), offset = tensor<uint64, []>(64)))];
            tensor<fp16, [256]> encoder_pre_encode_conv_0_bias_to_fp16 = const()[name = tensor<string, []>("encoder_pre_encode_conv_0_bias_to_fp16"), val = tensor<fp16, [256]>(BLOBFILE(path = tensor<string, []>("@model_path/weights/weight.bin"), offset = tensor<uint64, []>(4736)))];
            tensor<fp16, [1, 256, 17, 65]> input_5_cast_fp16 = conv(bias = encoder_pre_encode_conv_0_bias_to_fp16, dilations = input_5_dilations_0, groups = input_5_groups_0, pad = input_5_pad_0, pad_type = input_5_pad_type_0, strides = input_5_strides_0, weight = encoder_pre_encode_conv_0_weight_to_fp16, x = input_3_cast_fp16)[name = tensor<string, []>("input_5_cast_fp16")];
            tensor<fp16, [1, 256, 17, 65]> input_7_cast_fp16 = relu(x = input_5_cast_fp16)[name = tensor<string, []>("input_7_cast_fp16")];
            tensor<int32, [8]> input_9_pad_0 = const()[name = tensor<string, []>("input_9_pad_0"), val = tensor<int32, [8]>([0, 0, 0, 0, 2, 1, 2, 1])];
            tensor<string, []> input_9_mode_0 = const()[name = tensor<string, []>("input_9_mode_0"), val = tensor<string, []>("constant")];
            tensor<fp16, []> const_1_to_fp16 = const()[name = tensor<string, []>("const_1_to_fp16"), val = tensor<fp16, []>(0x0p+0)];
            tensor<fp16, [1, 256, 20, 68]> input_9_cast_fp16 = pad(constant_val = const_1_to_fp16, mode = input_9_mode_0, pad = input_9_pad_0, x = input_7_cast_fp16)[name = tensor<string, []>("input_9_cast_fp16")];
            tensor<string, []> input_11_pad_type_0 = const()[name = tensor<string, []>("input_11_pad_type_0"), val = tensor<string, []>("valid")];
            tensor<int32, [2]> input_11_strides_0 = const()[name = tensor<string, []>("input_11_strides_0"), val = tensor<int32, [2]>([2, 2])];
            tensor<int32, []> input_11_groups_0 = const()[name = tensor<string, []>("input_11_groups_0"), val = tensor<int32, []>(256)];
            tensor<int32, [4]> input_11_pad_0 = const()[name = tensor<string, []>("input_11_pad_0"), val = tensor<int32, [4]>([0, 0, 0, 0])];
            tensor<int32, [2]> input_11_dilations_0 = const()[name = tensor<string, []>("input_11_dilations_0"), val = tensor<int32, [2]>([1, 1])];
            tensor<fp16, [256, 1, 3, 3]> encoder_pre_encode_conv_2_weight_to_fp16 = const()[name = tensor<string, []>("encoder_pre_encode_conv_2_weight_to_fp16"), val = tensor<fp16, [256, 1, 3, 3]>(BLOBFILE(path = tensor<string, []>("@model_path/weights/weight.bin"), offset = tensor<uint64, []>(5312)))];
            tensor<fp16, [256]> encoder_pre_encode_conv_2_bias_to_fp16 = const()[name = tensor<string, []>("encoder_pre_encode_conv_2_bias_to_fp16"), val = tensor<fp16, [256]>(BLOBFILE(path = tensor<string, []>("@model_path/weights/weight.bin"), offset = tensor<uint64, []>(9984)))];
            tensor<fp16, [1, 256, 9, 33]> input_11_cast_fp16 = conv(bias = encoder_pre_encode_conv_2_bias_to_fp16, dilations = input_11_dilations_0, groups = input_11_groups_0, pad = input_11_pad_0, pad_type = input_11_pad_type_0, strides = input_11_strides_0, weight = encoder_pre_encode_conv_2_weight_to_fp16, x = input_9_cast_fp16)[name = tensor<string, []>("input_11_cast_fp16")];
            tensor<string, []> input_13_pad_type_0 = const()[name = tensor<string, []>("input_13_pad_type_0"), val = tensor<string, []>("valid")];
            tensor<int32, [2]> input_13_strides_0 = const()[name = tensor<string, []>("input_13_strides_0"), val = tensor<int32, [2]>([1, 1])];
            tensor<int32, [4]> input_13_pad_0 = const()[name = tensor<string, []>("input_13_pad_0"), val = tensor<int32, [4]>([0, 0, 0, 0])];
            tensor<int32, [2]> input_13_dilations_0 = const()[name = tensor<string, []>("input_13_dilations_0"), val = tensor<int32, [2]>([1, 1])];
            tensor<int32, []> input_13_groups_0 = const()[name = tensor<string, []>("input_13_groups_0"), val = tensor<int32, []>(1)];
            tensor<fp16, [256, 256, 1, 1]> encoder_pre_encode_conv_3_weight_to_fp16 = const()[name = tensor<string, []>("encoder_pre_encode_conv_3_weight_to_fp16"), val = tensor<fp16, [256, 256, 1, 1]>(BLOBFILE(path = tensor<string, []>("@model_path/weights/weight.bin"), offset = tensor<uint64, []>(10560)))];
            tensor<fp16, [256]> encoder_pre_encode_conv_3_bias_to_fp16 = const()[name = tensor<string, []>("encoder_pre_encode_conv_3_bias_to_fp16"), val = tensor<fp16, [256]>(BLOBFILE(path = tensor<string, []>("@model_path/weights/weight.bin"), offset = tensor<uint64, []>(141696)))];
            tensor<fp16, [1, 256, 9, 33]> input_13_cast_fp16 = conv(bias = encoder_pre_encode_conv_3_bias_to_fp16, dilations = input_13_dilations_0, groups = input_13_groups_0, pad = input_13_pad_0, pad_type = input_13_pad_type_0, strides = input_13_strides_0, weight = encoder_pre_encode_conv_3_weight_to_fp16, x = input_11_cast_fp16)[name = tensor<string, []>("input_13_cast_fp16")];
            tensor<fp16, [1, 256, 9, 33]> input_15_cast_fp16 = relu(x = input_13_cast_fp16)[name = tensor<string, []>("input_15_cast_fp16")];
            tensor<int32, [8]> input_17_pad_0 = const()[name = tensor<string, []>("input_17_pad_0"), val = tensor<int32, [8]>([0, 0, 0, 0, 2, 1, 2, 1])];
            tensor<string, []> input_17_mode_0 = const()[name = tensor<string, []>("input_17_mode_0"), val = tensor<string, []>("constant")];
            tensor<fp16, []> const_2_to_fp16 = const()[name = tensor<string, []>("const_2_to_fp16"), val = tensor<fp16, []>(0x0p+0)];
            tensor<fp16, [1, 256, 12, 36]> input_17_cast_fp16 = pad(constant_val = const_2_to_fp16, mode = input_17_mode_0, pad = input_17_pad_0, x = input_15_cast_fp16)[name = tensor<string, []>("input_17_cast_fp16")];
            tensor<string, []> input_19_pad_type_0 = const()[name = tensor<string, []>("input_19_pad_type_0"), val = tensor<string, []>("valid")];
            tensor<int32, [2]> input_19_strides_0 = const()[name = tensor<string, []>("input_19_strides_0"), val = tensor<int32, [2]>([2, 2])];
            tensor<int32, []> input_19_groups_0 = const()[name = tensor<string, []>("input_19_groups_0"), val = tensor<int32, []>(256)];
            tensor<int32, [4]> input_19_pad_0 = const()[name = tensor<string, []>("input_19_pad_0"), val = tensor<int32, [4]>([0, 0, 0, 0])];
            tensor<int32, [2]> input_19_dilations_0 = const()[name = tensor<string, []>("input_19_dilations_0"), val = tensor<int32, [2]>([1, 1])];
            tensor<fp16, [256, 1, 3, 3]> encoder_pre_encode_conv_5_weight_to_fp16 = const()[name = tensor<string, []>("encoder_pre_encode_conv_5_weight_to_fp16"), val = tensor<fp16, [256, 1, 3, 3]>(BLOBFILE(path = tensor<string, []>("@model_path/weights/weight.bin"), offset = tensor<uint64, []>(142272)))];
            tensor<fp16, [256]> encoder_pre_encode_conv_5_bias_to_fp16 = const()[name = tensor<string, []>("encoder_pre_encode_conv_5_bias_to_fp16"), val = tensor<fp16, [256]>(BLOBFILE(path = tensor<string, []>("@model_path/weights/weight.bin"), offset = tensor<uint64, []>(146944)))];
            tensor<fp16, [1, 256, 5, 17]> input_19_cast_fp16 = conv(bias = encoder_pre_encode_conv_5_bias_to_fp16, dilations = input_19_dilations_0, groups = input_19_groups_0, pad = input_19_pad_0, pad_type = input_19_pad_type_0, strides = input_19_strides_0, weight = encoder_pre_encode_conv_5_weight_to_fp16, x = input_17_cast_fp16)[name = tensor<string, []>("input_19_cast_fp16")];
            tensor<string, []> input_21_pad_type_0 = const()[name = tensor<string, []>("input_21_pad_type_0"), val = tensor<string, []>("valid")];
            tensor<int32, [2]> input_21_strides_0 = const()[name = tensor<string, []>("input_21_strides_0"), val = tensor<int32, [2]>([1, 1])];
            tensor<int32, [4]> input_21_pad_0 = const()[name = tensor<string, []>("input_21_pad_0"), val = tensor<int32, [4]>([0, 0, 0, 0])];
            tensor<int32, [2]> input_21_dilations_0 = const()[name = tensor<string, []>("input_21_dilations_0"), val = tensor<int32, [2]>([1, 1])];
            tensor<int32, []> input_21_groups_0 = const()[name = tensor<string, []>("input_21_groups_0"), val = tensor<int32, []>(1)];
            tensor<fp16, [256, 256, 1, 1]> encoder_pre_encode_conv_6_weight_to_fp16 = const()[name = tensor<string, []>("encoder_pre_encode_conv_6_weight_to_fp16"), val = tensor<fp16, [256, 256, 1, 1]>(BLOBFILE(path = tensor<string, []>("@model_path/weights/weight.bin"), offset = tensor<uint64, []>(147520)))];
            tensor<fp16, [256]> encoder_pre_encode_conv_6_bias_to_fp16 = const()[name = tensor<string, []>("encoder_pre_encode_conv_6_bias_to_fp16"), val = tensor<fp16, [256]>(BLOBFILE(path = tensor<string, []>("@model_path/weights/weight.bin"), offset = tensor<uint64, []>(278656)))];
            tensor<fp16, [1, 256, 5, 17]> input_21_cast_fp16 = conv(bias = encoder_pre_encode_conv_6_bias_to_fp16, dilations = input_21_dilations_0, groups = input_21_groups_0, pad = input_21_pad_0, pad_type = input_21_pad_type_0, strides = input_21_strides_0, weight = encoder_pre_encode_conv_6_weight_to_fp16, x = input_19_cast_fp16)[name = tensor<string, []>("input_21_cast_fp16")];
            tensor<fp16, [1, 256, 5, 17]> x_3_cast_fp16 = relu(x = input_21_cast_fp16)[name = tensor<string, []>("x_3_cast_fp16")];
            tensor<int32, [4]> var_181_perm_0 = const()[name = tensor<string, []>("op_181_perm_0"), val = tensor<int32, [4]>([0, 2, 1, 3])];
            tensor<int32, [3]> var_182 = const()[name = tensor<string, []>("op_182"), val = tensor<int32, [3]>([1, 5, -1])];
            tensor<fp16, [1, 5, 256, 17]> var_181_cast_fp16 = transpose(perm = var_181_perm_0, x = x_3_cast_fp16)[name = tensor<string, []>("transpose_240")];
            tensor<fp16, [1, 5, 4352]> input_23_cast_fp16 = reshape(shape = var_182, x = var_181_cast_fp16)[name = tensor<string, []>("input_23_cast_fp16")];
            tensor<fp16, [512, 4352]> encoder_pre_encode_out_weight_to_fp16 = const()[name = tensor<string, []>("encoder_pre_encode_out_weight_to_fp16"), val = tensor<fp16, [512, 4352]>(BLOBFILE(path = tensor<string, []>("@model_path/weights/weight.bin"), offset = tensor<uint64, []>(279232)))];
            tensor<fp16, [512]> encoder_pre_encode_out_bias_to_fp16 = const()[name = tensor<string, []>("encoder_pre_encode_out_bias_to_fp16"), val = tensor<fp16, [512]>(BLOBFILE(path = tensor<string, []>("@model_path/weights/weight.bin"), offset = tensor<uint64, []>(4735744)))];
            tensor<fp16, [1, 5, 512]> linear_0_cast_fp16 = linear(bias = encoder_pre_encode_out_bias_to_fp16, weight = encoder_pre_encode_out_weight_to_fp16, x = input_23_cast_fp16)[name = tensor<string, []>("linear_0_cast_fp16")];
            tensor<int32, [3]> var_192_begin_0 = const()[name = tensor<string, []>("op_192_begin_0"), val = tensor<int32, [3]>([0, 2, 0])];
            tensor<int32, [3]> var_192_end_0 = const()[name = tensor<string, []>("op_192_end_0"), val = tensor<int32, [3]>([1, 5, 512])];
            tensor<bool, [3]> var_192_end_mask_0 = const()[name = tensor<string, []>("op_192_end_mask_0"), val = tensor<bool, [3]>([true, true, true])];
            tensor<fp16, [1, 3, 512]> var_192_cast_fp16 = slice_by_index(begin = var_192_begin_0, end = var_192_end_0, end_mask = var_192_end_mask_0, x = linear_0_cast_fp16)[name = tensor<string, []>("op_192_cast_fp16")];
            tensor<int32, []> var_194 = const()[name = tensor<string, []>("op_194"), val = tensor<int32, []>(2)];
            tensor<int32, [1]> lengths_cast_fp16_to_int32 = cast(dtype = cast_9_dtype_0, x = lengths_cast_fp16)[name = tensor<string, []>("cast_190")];
            tensor<int32, [1]> var_195 = sub(x = lengths_cast_fp16_to_int32, y = var_194)[name = tensor<string, []>("op_195")];
            tensor<string, []> var_195_promoted_to_fp16_dtype_0 = const()[name = tensor<string, []>("op_195_promoted_to_fp16_dtype_0"), val = tensor<string, []>("fp16")];
            tensor<fp16, []> var_60_promoted_to_fp16 = const()[name = tensor<string, []>("op_60_promoted_to_fp16"), val = tensor<fp16, []>(0x0p+0)];
            tensor<fp16, []> const_5_to_fp16 = const()[name = tensor<string, []>("const_5_to_fp16"), val = tensor<fp16, []>(inf)];
            tensor<fp16, [1]> var_195_to_fp16 = cast(dtype = var_195_promoted_to_fp16_dtype_0, x = var_195)[name = tensor<string, []>("cast_189")];
            tensor<fp16, [1]> clip_0_cast_fp16 = clip(alpha = var_60_promoted_to_fp16, beta = const_5_to_fp16, x = var_195_to_fp16)[name = tensor<string, []>("clip_0_cast_fp16")];
            tensor<int32, [1]> max_audio_length_1 = const()[name = tensor<string, []>("max_audio_length_1"), val = tensor<int32, [1]>([3])];
            tensor<fp16, []> var_211_promoted_to_fp16 = const()[name = tensor<string, []>("op_211_promoted_to_fp16"), val = tensor<fp16, []>(0x1.18p+6)];
            tensor<fp16, [1]> padding_length_cast_fp16 = add(x = clip_0_cast_fp16, y = var_211_promoted_to_fp16)[name = tensor<string, []>("padding_length_cast_fp16")];
            tensor<int32, []> const_7 = const()[name = tensor<string, []>("const_7"), val = tensor<int32, []>(-1)];
            tensor<int32, [1]> var_213 = mul(x = cache_last_channel_len, y = const_7)[name = tensor<string, []>("op_213")];
            tensor<int32, []> var_214 = const()[name = tensor<string, []>("op_214"), val = tensor<int32, []>(70)];
            tensor<int32, [1]> offset = add(x = var_213, y = var_214)[name = tensor<string, []>("offset")];
            tensor<int32, [1]> var_254_axes_0 = const()[name = tensor<string, []>("op_254_axes_0"), val = tensor<int32, [1]>([-1])];
            tensor<fp16, [1, 1]> var_254_cast_fp16 = expand_dims(axes = var_254_axes_0, x = padding_length_cast_fp16)[name = tensor<string, []>("op_254_cast_fp16")];
            tensor<fp16, [1, 73]> var_253_promoted_to_fp16 = const()[name = tensor<string, []>("op_253_promoted_to_fp16"), val = tensor<fp16, [1, 73]>(BLOBFILE(path = tensor<string, []>("@model_path/weights/weight.bin"), offset = tensor<uint64, []>(4736832)))];
            tensor<bool, [1, 73]> pad_mask_1_cast_fp16 = less(x = var_253_promoted_to_fp16, y = var_254_cast_fp16)[name = tensor<string, []>("pad_mask_1_cast_fp16")];
            tensor<int32, [1, 73]> expand_dims_1 = const()[name = tensor<string, []>("expand_dims_1"), val = tensor<int32, [1, 73]>([[0, 1, 2, 3, 4, 5, 6, 7, 8, 9, 10, 11, 12, 13, 14, 15, 16, 17, 18, 19, 20, 21, 22, 23, 24, 25, 26, 27, 28, 29, 30, 31, 32, 33, 34, 35, 36, 37, 38, 39, 40, 41, 42, 43, 44, 45, 46, 47, 48, 49, 50, 51, 52, 53, 54, 55, 56, 57, 58, 59, 60, 61, 62, 63, 64, 65, 66, 67, 68, 69, 70, 71, 72]])];
            tensor<int32, [1]> var_260_axes_0 = const()[name = tensor<string, []>("op_260_axes_0"), val = tensor<int32, [1]>([-1])];
            tensor<int32, [1, 1]> var_260 = expand_dims(axes = var_260_axes_0, x = offset)[name = tensor<string, []>("op_260")];
            tensor<bool, [1, 73]> pad_mask_off = greater_equal(x = expand_dims_1, y = var_260)[name = tensor<string, []>("pad_mask_off")];
            tensor<bool, [1, 73]> pad_mask_3 = logical_and(x = pad_mask_off, y = pad_mask_1_cast_fp16)[name = tensor<string, []>("pad_mask_3")];
            tensor<int32, [1]> var_263_axes_0 = const()[name = tensor<string, []>("op_263_axes_0"), val = tensor<int32, [1]>([1])];
            tensor<bool, [1, 1, 73]> var_263 = expand_dims(axes = var_263_axes_0, x = pad_mask_3)[name = tensor<string, []>("op_263")];
            tensor<int32, [3]> var_264 = const()[name = tensor<string, []>("op_264"), val = tensor<int32, [3]>([1, 73, 1])];
            tensor<bool, [1, 73, 73]> pad_mask_for_att_mask_1 = tile(reps = var_264, x = var_263)[name = tensor<string, []>("pad_mask_for_att_mask_1")];
            tensor<int32, [3]> var_266_perm_0 = const()[name = tensor<string, []>("op_266_perm_0"), val = tensor<int32, [3]>([0, 2, 1])];
            tensor<bool, [1, 73, 73]> var_266 = transpose(perm = var_266_perm_0, x = pad_mask_for_att_mask_1)[name = tensor<string, []>("transpose_239")];
            tensor<bool, [1, 73, 73]> pad_mask_for_att_mask = logical_and(x = pad_mask_for_att_mask_1, y = var_266)[name = tensor<string, []>("pad_mask_for_att_mask")];
            tensor<bool, [1, 73, 73]> const_15 = const()[name = tensor<string, []>("const_15"), val = tensor<bool, [1, 73, 73]>([[[true, true, false, false, false, false, false, false, false, false, false, false, false, false, false, false, false, false, false, false, false, false, false, false, false, false, false, false, false, false, false, false, false, false, false, false, false, false, false, false, false, false, false, false, false, false, false, false, false, false, false, false, false, false, false, false, false, false, false, false, false, false, false, false, false, false, false, false, false, false, false, false, false], [true, true, false, false, false, false, false, false, false, false, false, false, false, false, false, false, false, false, false, false, false, false, false, false, false, false, false, false, false, false, false, false, false, false, false, false, false, false, false, false, false, false, false, false, false, false, false, false, false, false, false, false, false, false, false, false, false, false, false, false, false, false, false, false, false, false, false, false, false, false, false, false, false], [true, true, true, true, false, false, false, false, false, false, false, false, false, false, false, false, false, false, false, false, false, false, false, false, false, false, false, false, false, false, false, false, false, false, false, false, false, false, false, false, false, false, false, false, false, false, false, false, false, false, false, false, false, false, false, false, false, false, false, false, false, false, false, false, false, false, false, false, false, false, false, false, false], [true, true, true, true, false, false, false, false, false, false, false, false, false, false, false, false, false, false, false, false, false, false, false, false, false, false, false, false, false, false, false, false, false, false, false, false, false, false, false, false, false, false, false, false, false, false, false, false, false, false, false, false, false, false, false, false, false, false, false, false, false, false, false, false, false, false, false, false, false, false, false, false, false], [true, true, true, true, true, true, false, false, false, false, false, false, false, false, false, false, false, false, false, false, false, false, false, false, false, false, false, false, false, false, false, false, false, false, false, false, false, false, false, false, false, false, false, false, false, false, false, false, false, false, false, false, false, false, false, false, false, false, false, false, false, false, false, false, false, false, false, false, false, false, false, false, false], [true, true, true, true, true, true, false, false, false, false, false, false, false, false, false, false, false, false, false, false, false, false, false, false, false, false, false, false, false, false, false, false, false, false, false, false, false, false, false, false, false, false, false, false, false, false, false, false, false, false, false, false, false, false, false, false, false, false, false, false, false, false, false, false, false, false, false, false, false, false, false, false, false], [true, true, true, true, true, true, true, true, false, false, false, false, false, false, false, false, false, false, false, false, false, false, false, false, false, false, false, false, false, false, false, false, false, false, false, false, false, false, false, false, false, false, false, false, false, false, false, false, false, false, false, false, false, false, false, false, false, false, false, false, false, false, false, false, false, false, false, false, false, false, false, false, false], [true, true, true, true, true, true, true, true, false, false, false, false, false, false, false, false, false, false, false, false, false, false, false, false, false, false, false, false, false, false, false, false, false, false, false, false, false, false, false, false, false, false, false, false, false, false, false, false, false, false, false, false, false, false, false, false, false, false, false, false, false, false, false, false, false, false, false, false, false, false, false, false, false], [true, true, true, true, true, true, true, true, true, true, false, false, false, false, false, false, false, false, false, false, false, false, false, false, false, false, false, false, false, false, false, false, false, false, false, false, false, false, false, false, false, false, false, false, false, false, false, false, false, false, false, false, false, false, false, false, false, false, false, false, false, false, false, false, false, false, false, false, false, false, false, false, false], [true, true, true, true, true, true, true, true, true, true, false, false, false, false, false, false, false, false, false, false, false, false, false, false, false, false, false, false, false, false, false, false, false, false, false, false, false, false, false, false, false, false, false, false, false, false, false, false, false, false, false, false, false, false, false, false, false, false, false, false, false, false, false, false, false, false, false, false, false, false, false, false, false], [true, true, true, true, true, true, true, true, true, true, true, true, false, false, false, false, false, false, false, false, false, false, false, false, false, false, false, false, false, false, false, false, false, false, false, false, false, false, false, false, false, false, false, false, false, false, false, false, false, false, false, false, false, false, false, false, false, false, false, false, false, false, false, false, false, false, false, false, false, false, false, false, false], [true, true, true, true, true, true, true, true, true, true, true, true, false, false, false, false, false, false, false, false, false, false, false, false, false, false, false, false, false, false, false, false, false, false, false, false, false, false, false, false, false, false, false, false, false, false, false, false, false, false, false, false, false, false, false, false, false, false, false, false, false, false, false, false, false, false, false, false, false, false, false, false, false], [true, true, true, true, true, true, true, true, true, true, true, true, true, true, false, false, false, false, false, false, false, false, false, false, false, false, false, false, false, false, false, false, false, false, false, false, false, false, false, false, false, false, false, false, false, false, false, false, false, false, false, false, false, false, false, false, false, false, false, false, false, false, false, false, false, false, false, false, false, false, false, false, false], [true, true, true, true, true, true, true, true, true, true, true, true, true, true, false, false, false, false, false, false, false, false, false, false, false, false, false, false, false, false, false, false, false, false, false, false, false, false, false, false, false, false, false, false, false, false, false, false, false, false, false, false, false, false, false, false, false, false, false, false, false, false, false, false, false, false, false, false, false, false, false, false, false], [true, true, true, true, true, true, true, true, true, true, true, true, true, true, true, true, false, false, false, false, false, false, false, false, false, false, false, false, false, false, false, false, false, false, false, false, false, false, false, false, false, false, false, false, false, false, false, false, false, false, false, false, false, false, false, false, false, false, false, false, false, false, false, false, false, false, false, false, false, false, false, false, false], [true, true, true, true, true, true, true, true, true, true, true, true, true, true, true, true, false, false, false, false, false, false, false, false, false, false, false, false, false, false, false, false, false, false, false, false, false, false, false, false, false, false, false, false, false, false, false, false, false, false, false, false, false, false, false, false, false, false, false, false, false, false, false, false, false, false, false, false, false, false, false, false, false], [true, true, true, true, true, true, true, true, true, true, true, true, true, true, true, true, true, true, false, false, false, false, false, false, false, false, false, false, false, false, false, false, false, false, false, false, false, false, false, false, false, false, false, false, false, false, false, false, false, false, false, false, false, false, false, false, false, false, false, false, false, false, false, false, false, false, false, false, false, false, false, false, false], [true, true, true, true, true, true, true, true, true, true, true, true, true, true, true, true, true, true, false, false, false, false, false, false, false, false, false, false, false, false, false, false, false, false, false, false, false, false, false, false, false, false, false, false, false, false, false, false, false, false, false, false, false, false, false, false, false, false, false, false, false, false, false, false, false, false, false, false, false, false, false, false, false], [true, true, true, true, true, true, true, true, true, true, true, true, true, true, true, true, true, true, true, true, false, false, false, false, false, false, false, false, false, false, false, false, false, false, false, false, false, false, false, false, false, false, false, false, false, false, false, false, false, false, false, false, false, false, false, false, false, false, false, false, false, false, false, false, false, false, false, false, false, false, false, false, false], [true, true, true, true, true, true, true, true, true, true, true, true, true, true, true, true, true, true, true, true, false, false, false, false, false, false, false, false, false, false, false, false, false, false, false, false, false, false, false, false, false, false, false, false, false, false, false, false, false, false, false, false, false, false, false, false, false, false, false, false, false, false, false, false, false, false, false, false, false, false, false, false, false], [true, true, true, true, true, true, true, true, true, true, true, true, true, true, true, true, true, true, true, true, true, true, false, false, false, false, false, false, false, false, false, false, false, false, false, false, false, false, false, false, false, false, false, false, false, false, false, false, false, false, false, false, false, false, false, false, false, false, false, false, false, false, false, false, false, false, false, false, false, false, false, false, false], [true, true, true, true, true, true, true, true, true, true, true, true, true, true, true, true, true, true, true, true, true, true, false, false, false, false, false, false, false, false, false, false, false, false, false, false, false, false, false, false, false, false, false, false, false, false, false, false, false, false, false, false, false, false, false, false, false, false, false, false, false, false, false, false, false, false, false, false, false, false, false, false, false], [true, true, true, true, true, true, true, true, true, true, true, true, true, true, true, true, true, true, true, true, true, true, true, true, false, false, false, false, false, false, false, false, false, false, false, false, false, false, false, false, false, false, false, false, false, false, false, false, false, false, false, false, false, false, false, false, false, false, false, false, false, false, false, false, false, false, false, false, false, false, false, false, false], [true, true, true, true, true, true, true, true, true, true, true, true, true, true, true, true, true, true, true, true, true, true, true, true, false, false, false, false, false, false, false, false, false, false, false, false, false, false, false, false, false, false, false, false, false, false, false, false, false, false, false, false, false, false, false, false, false, false, false, false, false, false, false, false, false, false, false, false, false, false, false, false, false], [true, true, true, true, true, true, true, true, true, true, true, true, true, true, true, true, true, true, true, true, true, true, true, true, true, true, false, false, false, false, false, false, false, false, false, false, false, false, false, false, false, false, false, false, false, false, false, false, false, false, false, false, false, false, false, false, false, false, false, false, false, false, false, false, false, false, false, false, false, false, false, false, false], [true, true, true, true, true, true, true, true, true, true, true, true, true, true, true, true, true, true, true, true, true, true, true, true, true, true, false, false, false, false, false, false, false, false, false, false, false, false, false, false, false, false, false, false, false, false, false, false, false, false, false, false, false, false, false, false, false, false, false, false, false, false, false, false, false, false, false, false, false, false, false, false, false], [true, true, true, true, true, true, true, true, true, true, true, true, true, true, true, true, true, true, true, true, true, true, true, true, true, true, true, true, false, false, false, false, false, false, false, false, false, false, false, false, false, false, false, false, false, false, false, false, false, false, false, false, false, false, false, false, false, false, false, false, false, false, false, false, false, false, false, false, false, false, false, false, false], [true, true, true, true, true, true, true, true, true, true, true, true, true, true, true, true, true, true, true, true, true, true, true, true, true, true, true, true, false, false, false, false, false, false, false, false, false, false, false, false, false, false, false, false, false, false, false, false, false, false, false, false, false, false, false, false, false, false, false, false, false, false, false, false, false, false, false, false, false, false, false, false, false], [true, true, true, true, true, true, true, true, true, true, true, true, true, true, true, true, true, true, true, true, true, true, true, true, true, true, true, true, true, true, false, false, false, false, false, false, false, false, false, false, false, false, false, false, false, false, false, false, false, false, false, false, false, false, false, false, false, false, false, false, false, false, false, false, false, false, false, false, false, false, false, false, false], [true, true, true, true, true, true, true, true, true, true, true, true, true, true, true, true, true, true, true, true, true, true, true, true, true, true, true, true, true, true, false, false, false, false, false, false, false, false, false, false, false, false, false, false, false, false, false, false, false, false, false, false, false, false, false, false, false, false, false, false, false, false, false, false, false, false, false, false, false, false, false, false, false], [true, true, true, true, true, true, true, true, true, true, true, true, true, true, true, true, true, true, true, true, true, true, true, true, true, true, true, true, true, true, true, true, false, false, false, false, false, false, false, false, false, false, false, false, false, false, false, false, false, false, false, false, false, false, false, false, false, false, false, false, false, false, false, false, false, false, false, false, false, false, false, false, false], [true, true, true, true, true, true, true, true, true, true, true, true, true, true, true, true, true, true, true, true, true, true, true, true, true, true, true, true, true, true, true, true, false, false, false, false, false, false, false, false, false, false, false, false, false, false, false, false, false, false, false, false, false, false, false, false, false, false, false, false, false, false, false, false, false, false, false, false, false, false, false, false, false], [true, true, true, true, true, true, true, true, true, true, true, true, true, true, true, true, true, true, true, true, true, true, true, true, true, true, true, true, true, true, true, true, true, true, false, false, false, false, false, false, false, false, false, false, false, false, false, false, false, false, false, false, false, false, false, false, false, false, false, false, false, false, false, false, false, false, false, false, false, false, false, false, false], [true, true, true, true, true, true, true, true, true, true, true, true, true, true, true, true, true, true, true, true, true, true, true, true, true, true, true, true, true, true, true, true, true, true, false, false, false, false, false, false, false, false, false, false, false, false, false, false, false, false, false, false, false, false, false, false, false, false, false, false, false, false, false, false, false, false, false, false, false, false, false, false, false], [true, true, true, true, true, true, true, true, true, true, true, true, true, true, true, true, true, true, true, true, true, true, true, true, true, true, true, true, true, true, true, true, true, true, true, true, false, false, false, false, false, false, false, false, false, false, false, false, false, false, false, false, false, false, false, false, false, false, false, false, false, false, false, false, false, false, false, false, false, false, false, false, false], [true, true, true, true, true, true, true, true, true, true, true, true, true, true, true, true, true, true, true, true, true, true, true, true, true, true, true, true, true, true, true, true, true, true, true, true, false, false, false, false, false, false, false, false, false, false, false, false, false, false, false, false, false, false, false, false, false, false, false, false, false, false, false, false, false, false, false, false, false, false, false, false, false], [true, true, true, true, true, true, true, true, true, true, true, true, true, true, true, true, true, true, true, true, true, true, true, true, true, true, true, true, true, true, true, true, true, true, true, true, true, true, false, false, false, false, false, false, false, false, false, false, false, false, false, false, false, false, false, false, false, false, false, false, false, false, false, false, false, false, false, false, false, false, false, false, false], [true, true, true, true, true, true, true, true, true, true, true, true, true, true, true, true, true, true, true, true, true, true, true, true, true, true, true, true, true, true, true, true, true, true, true, true, true, true, false, false, false, false, false, false, false, false, false, false, false, false, false, false, false, false, false, false, false, false, false, false, false, false, false, false, false, false, false, false, false, false, false, false, false], [true, true, true, true, true, true, true, true, true, true, true, true, true, true, true, true, true, true, true, true, true, true, true, true, true, true, true, true, true, true, true, true, true, true, true, true, true, true, true, true, false, false, false, false, false, false, false, false, false, false, false, false, false, false, false, false, false, false, false, false, false, false, false, false, false, false, false, false, false, false, false, false, false], [true, true, true, true, true, true, true, true, true, true, true, true, true, true, true, true, true, true, true, true, true, true, true, true, true, true, true, true, true, true, true, true, true, true, true, true, true, true, true, true, false, false, false, false, false, false, false, false, false, false, false, false, false, false, false, false, false, false, false, false, false, false, false, false, false, false, false, false, false, false, false, false, false], [true, true, true, true, true, true, true, true, true, true, true, true, true, true, true, true, true, true, true, true, true, true, true, true, true, true, true, true, true, true, true, true, true, true, true, true, true, true, true, true, true, true, false, false, false, false, false, false, false, false, false, false, false, false, false, false, false, false, false, false, false, false, false, false, false, false, false, false, false, false, false, false, false], [true, true, true, true, true, true, true, true, true, true, true, true, true, true, true, true, true, true, true, true, true, true, true, true, true, true, true, true, true, true, true, true, true, true, true, true, true, true, true, true, true, true, false, false, false, false, false, false, false, false, false, false, false, false, false, false, false, false, false, false, false, false, false, false, false, false, false, false, false, false, false, false, false], [true, true, true, true, true, true, true, true, true, true, true, true, true, true, true, true, true, true, true, true, true, true, true, true, true, true, true, true, true, true, true, true, true, true, true, true, true, true, true, true, true, true, true, true, false, false, false, false, false, false, false, false, false, false, false, false, false, false, false, false, false, false, false, false, false, false, false, false, false, false, false, false, false], [true, true, true, true, true, true, true, true, true, true, true, true, true, true, true, true, true, true, true, true, true, true, true, true, true, true, true, true, true, true, true, true, true, true, true, true, true, true, true, true, true, true, true, true, false, false, false, false, false, false, false, false, false, false, false, false, false, false, false, false, false, false, false, false, false, false, false, false, false, false, false, false, false], [true, true, true, true, true, true, true, true, true, true, true, true, true, true, true, true, true, true, true, true, true, true, true, true, true, true, true, true, true, true, true, true, true, true, true, true, true, true, true, true, true, true, true, true, true, true, false, false, false, false, false, false, false, false, false, false, false, false, false, false, false, false, false, false, false, false, false, false, false, false, false, false, false], [true, true, true, true, true, true, true, true, true, true, true, true, true, true, true, true, true, true, true, true, true, true, true, true, true, true, true, true, true, true, true, true, true, true, true, true, true, true, true, true, true, true, true, true, true, true, false, false, false, false, false, false, false, false, false, false, false, false, false, false, false, false, false, false, false, false, false, false, false, false, false, false, false], [true, true, true, true, true, true, true, true, true, true, true, true, true, true, true, true, true, true, true, true, true, true, true, true, true, true, true, true, true, true, true, true, true, true, true, true, true, true, true, true, true, true, true, true, true, true, true, true, false, false, false, false, false, false, false, false, false, false, false, false, false, false, false, false, false, false, false, false, false, false, false, false, false], [true, true, true, true, true, true, true, true, true, true, true, true, true, true, true, true, true, true, true, true, true, true, true, true, true, true, true, true, true, true, true, true, true, true, true, true, true, true, true, true, true, true, true, true, true, true, true, true, false, false, false, false, false, false, false, false, false, false, false, false, false, false, false, false, false, false, false, false, false, false, false, false, false], [true, true, true, true, true, true, true, true, true, true, true, true, true, true, true, true, true, true, true, true, true, true, true, true, true, true, true, true, true, true, true, true, true, true, true, true, true, true, true, true, true, true, true, true, true, true, true, true, true, true, false, false, false, false, false, false, false, false, false, false, false, false, false, false, false, false, false, false, false, false, false, false, false], [true, true, true, true, true, true, true, true, true, true, true, true, true, true, true, true, true, true, true, true, true, true, true, true, true, true, true, true, true, true, true, true, true, true, true, true, true, true, true, true, true, true, true, true, true, true, true, true, true, true, false, false, false, false, false, false, false, false, false, false, false, false, false, false, false, false, false, false, false, false, false, false, false], [true, true, true, true, true, true, true, true, true, true, true, true, true, true, true, true, true, true, true, true, true, true, true, true, true, true, true, true, true, true, true, true, true, true, true, true, true, true, true, true, true, true, true, true, true, true, true, true, true, true, true, true, false, false, false, false, false, false, false, false, false, false, false, false, false, false, false, false, false, false, false, false, false], [true, true, true, true, true, true, true, true, true, true, true, true, true, true, true, true, true, true, true, true, true, true, true, true, true, true, true, true, true, true, true, true, true, true, true, true, true, true, true, true, true, true, true, true, true, true, true, true, true, true, true, true, false, false, false, false, false, false, false, false, false, false, false, false, false, false, false, false, false, false, false, false, false], [true, true, true, true, true, true, true, true, true, true, true, true, true, true, true, true, true, true, true, true, true, true, true, true, true, true, true, true, true, true, true, true, true, true, true, true, true, true, true, true, true, true, true, true, true, true, true, true, true, true, true, true, true, true, false, false, false, false, false, false, false, false, false, false, false, false, false, false, false, false, false, false, false], [true, true, true, true, true, true, true, true, true, true, true, true, true, true, true, true, true, true, true, true, true, true, true, true, true, true, true, true, true, true, true, true, true, true, true, true, true, true, true, true, true, true, true, true, true, true, true, true, true, true, true, true, true, true, false, false, false, false, false, false, false, false, false, false, false, false, false, false, false, false, false, false, false], [true, true, true, true, true, true, true, true, true, true, true, true, true, true, true, true, true, true, true, true, true, true, true, true, true, true, true, true, true, true, true, true, true, true, true, true, true, true, true, true, true, true, true, true, true, true, true, true, true, true, true, true, true, true, true, true, false, false, false, false, false, false, false, false, false, false, false, false, false, false, false, false, false], [true, true, true, true, true, true, true, true, true, true, true, true, true, true, true, true, true, true, true, true, true, true, true, true, true, true, true, true, true, true, true, true, true, true, true, true, true, true, true, true, true, true, true, true, true, true, true, true, true, true, true, true, true, true, true, true, false, false, false, false, false, false, false, false, false, false, false, false, false, false, false, false, false], [true, true, true, true, true, true, true, true, true, true, true, true, true, true, true, true, true, true, true, true, true, true, true, true, true, true, true, true, true, true, true, true, true, true, true, true, true, true, true, true, true, true, true, true, true, true, true, true, true, true, true, true, true, true, true, true, true, true, false, false, false, false, false, false, false, false, false, false, false, false, false, false, false], [true, true, true, true, true, true, true, true, true, true, true, true, true, true, true, true, true, true, true, true, true, true, true, true, true, true, true, true, true, true, true, true, true, true, true, true, true, true, true, true, true, true, true, true, true, true, true, true, true, true, true, true, true, true, true, true, true, true, false, false, false, false, false, false, false, false, false, false, false, false, false, false, false], [true, true, true, true, true, true, true, true, true, true, true, true, true, true, true, true, true, true, true, true, true, true, true, true, true, true, true, true, true, true, true, true, true, true, true, true, true, true, true, true, true, true, true, true, true, true, true, true, true, true, true, true, true, true, true, true, true, true, true, true, false, false, false, false, false, false, false, false, false, false, false, false, false], [true, true, true, true, true, true, true, true, true, true, true, true, true, true, true, true, true, true, true, true, true, true, true, true, true, true, true, true, true, true, true, true, true, true, true, true, true, true, true, true, true, true, true, true, true, true, true, true, true, true, true, true, true, true, true, true, true, true, true, true, false, false, false, false, false, false, false, false, false, false, false, false, false], [true, true, true, true, true, true, true, true, true, true, true, true, true, true, true, true, true, true, true, true, true, true, true, true, true, true, true, true, true, true, true, true, true, true, true, true, true, true, true, true, true, true, true, true, true, true, true, true, true, true, true, true, true, true, true, true, true, true, true, true, true, true, false, false, false, false, false, false, false, false, false, false, false], [true, true, true, true, true, true, true, true, true, true, true, true, true, true, true, true, true, true, true, true, true, true, true, true, true, true, true, true, true, true, true, true, true, true, true, true, true, true, true, true, true, true, true, true, true, true, true, true, true, true, true, true, true, true, true, true, true, true, true, true, true, true, false, false, false, false, false, false, false, false, false, false, false], [true, true, true, true, true, true, true, true, true, true, true, true, true, true, true, true, true, true, true, true, true, true, true, true, true, true, true, true, true, true, true, true, true, true, true, true, true, true, true, true, true, true, true, true, true, true, true, true, true, true, true, true, true, true, true, true, true, true, true, true, true, true, true, true, false, false, false, false, false, false, false, false, false], [true, true, true, true, true, true, true, true, true, true, true, true, true, true, true, true, true, true, true, true, true, true, true, true, true, true, true, true, true, true, true, true, true, true, true, true, true, true, true, true, true, true, true, true, true, true, true, true, true, true, true, true, true, true, true, true, true, true, true, true, true, true, true, true, false, false, false, false, false, false, false, false, false], [true, true, true, true, true, true, true, true, true, true, true, true, true, true, true, true, true, true, true, true, true, true, true, true, true, true, true, true, true, true, true, true, true, true, true, true, true, true, true, true, true, true, true, true, true, true, true, true, true, true, true, true, true, true, true, true, true, true, true, true, true, true, true, true, true, true, false, false, false, false, false, false, false], [true, true, true, true, true, true, true, true, true, true, true, true, true, true, true, true, true, true, true, true, true, true, true, true, true, true, true, true, true, true, true, true, true, true, true, true, true, true, true, true, true, true, true, true, true, true, true, true, true, true, true, true, true, true, true, true, true, true, true, true, true, true, true, true, true, true, false, false, false, false, false, false, false], [true, true, true, true, true, true, true, true, true, true, true, true, true, true, true, true, true, true, true, true, true, true, true, true, true, true, true, true, true, true, true, true, true, true, true, true, true, true, true, true, true, true, true, true, true, true, true, true, true, true, true, true, true, true, true, true, true, true, true, true, true, true, true, true, true, true, true, true, false, false, false, false, false], [true, true, true, true, true, true, true, true, true, true, true, true, true, true, true, true, true, true, true, true, true, true, true, true, true, true, true, true, true, true, true, true, true, true, true, true, true, true, true, true, true, true, true, true, true, true, true, true, true, true, true, true, true, true, true, true, true, true, true, true, true, true, true, true, true, true, true, true, false, false, false, false, false], [true, true, true, true, true, true, true, true, true, true, true, true, true, true, true, true, true, true, true, true, true, true, true, true, true, true, true, true, true, true, true, true, true, true, true, true, true, true, true, true, true, true, true, true, true, true, true, true, true, true, true, true, true, true, true, true, true, true, true, true, true, true, true, true, true, true, true, true, true, true, false, false, false], [true, true, true, true, true, true, true, true, true, true, true, true, true, true, true, true, true, true, true, true, true, true, true, true, true, true, true, true, true, true, true, true, true, true, true, true, true, true, true, true, true, true, true, true, true, true, true, true, true, true, true, true, true, true, true, true, true, true, true, true, true, true, true, true, true, true, true, true, true, true, false, false, false], [true, true, true, true, true, true, true, true, true, true, true, true, true, true, true, true, true, true, true, true, true, true, true, true, true, true, true, true, true, true, true, true, true, true, true, true, true, true, true, true, true, true, true, true, true, true, true, true, true, true, true, true, true, true, true, true, true, true, true, true, true, true, true, true, true, true, true, true, true, true, true, true, false], [true, true, true, true, true, true, true, true, true, true, true, true, true, true, true, true, true, true, true, true, true, true, true, true, true, true, true, true, true, true, true, true, true, true, true, true, true, true, true, true, true, true, true, true, true, true, true, true, true, true, true, true, true, true, true, true, true, true, true, true, true, true, true, true, true, true, true, true, true, true, true, true, false], [false, false, true, true, true, true, true, true, true, true, true, true, true, true, true, true, true, true, true, true, true, true, true, true, true, true, true, true, true, true, true, true, true, true, true, true, true, true, true, true, true, true, true, true, true, true, true, true, true, true, true, true, true, true, true, true, true, true, true, true, true, true, true, true, true, true, true, true, true, true, true, true, true]]])];
            tensor<bool, [1, 73, 73]> att_mask_9 = logical_and(x = pad_mask_for_att_mask, y = const_15)[name = tensor<string, []>("att_mask_9")];
            tensor<bool, [1, 73, 73]> att_mask = logical_not(x = att_mask_9)[name = tensor<string, []>("att_mask")];
            tensor<bool, [1, 73]> pad_mask_5 = logical_not(x = pad_mask_3)[name = tensor<string, []>("pad_mask_5")];
            tensor<int32, [2]> pad_mask_begin_0 = const()[name = tensor<string, []>("pad_mask_begin_0"), val = tensor<int32, [2]>([0, 70])];
            tensor<int32, [2]> pad_mask_end_0 = const()[name = tensor<string, []>("pad_mask_end_0"), val = tensor<int32, [2]>([1, 73])];
            tensor<bool, [2]> pad_mask_end_mask_0 = const()[name = tensor<string, []>("pad_mask_end_mask_0"), val = tensor<bool, [2]>([true, true])];
            tensor<bool, [1, 3]> pad_mask = slice_by_index(begin = pad_mask_begin_0, end = pad_mask_end_0, end_mask = pad_mask_end_mask_0, x = pad_mask_5)[name = tensor<string, []>("pad_mask")];
            tensor<int32, [3]> mask_1_begin_0 = const()[name = tensor<string, []>("mask_1_begin_0"), val = tensor<int32, [3]>([0, 70, 0])];
            tensor<int32, [3]> mask_1_end_0 = const()[name = tensor<string, []>("mask_1_end_0"), val = tensor<int32, [3]>([1, 73, 73])];
            tensor<bool, [3]> mask_1_end_mask_0 = const()[name = tensor<string, []>("mask_1_end_mask_0"), val = tensor<bool, [3]>([true, true, true])];
            tensor<bool, [1, 3, 73]> mask_1 = slice_by_index(begin = mask_1_begin_0, end = mask_1_end_0, end_mask = mask_1_end_mask_0, x = att_mask)[name = tensor<string, []>("mask_1")];
            tensor<int32, [4]> cache_1_begin_0 = const()[name = tensor<string, []>("cache_1_begin_0"), val = tensor<int32, [4]>([0, 0, 0, 0])];
            tensor<int32, [4]> cache_1_end_0 = const()[name = tensor<string, []>("cache_1_end_0"), val = tensor<int32, [4]>([1, 1, 70, 512])];
            tensor<bool, [4]> cache_1_end_mask_0 = const()[name = tensor<string, []>("cache_1_end_mask_0"), val = tensor<bool, [4]>([false, true, true, true])];
            tensor<bool, [4]> cache_1_squeeze_mask_0 = const()[name = tensor<string, []>("cache_1_squeeze_mask_0"), val = tensor<bool, [4]>([true, false, false, false])];
            tensor<string, []> cache_last_channel_to_fp16_dtype_0 = const()[name = tensor<string, []>("cache_last_channel_to_fp16_dtype_0"), val = tensor<string, []>("fp16")];
            tensor<fp16, [17, 1, 70, 512]> cache_last_channel_to_fp16 = cast(dtype = cache_last_channel_to_fp16_dtype_0, x = cache_last_channel)[name = tensor<string, []>("cast_188")];
            tensor<fp16, [1, 70, 512]> cache_1_cast_fp16 = slice_by_index(begin = cache_1_begin_0, end = cache_1_end_0, end_mask = cache_1_end_mask_0, squeeze_mask = cache_1_squeeze_mask_0, x = cache_last_channel_to_fp16)[name = tensor<string, []>("cache_1_cast_fp16")];
            tensor<int32, [4]> cache_3_begin_0 = const()[name = tensor<string, []>("cache_3_begin_0"), val = tensor<int32, [4]>([0, 0, 0, 0])];
            tensor<int32, [4]> cache_3_end_0 = const()[name = tensor<string, []>("cache_3_end_0"), val = tensor<int32, [4]>([1, 1, 512, 8])];
            tensor<bool, [4]> cache_3_end_mask_0 = const()[name = tensor<string, []>("cache_3_end_mask_0"), val = tensor<bool, [4]>([false, true, true, true])];
            tensor<bool, [4]> cache_3_squeeze_mask_0 = const()[name = tensor<string, []>("cache_3_squeeze_mask_0"), val = tensor<bool, [4]>([true, false, false, false])];
            tensor<string, []> cache_last_time_to_fp16_dtype_0 = const()[name = tensor<string, []>("cache_last_time_to_fp16_dtype_0"), val = tensor<string, []>("fp16")];
            tensor<fp16, [17, 1, 512, 8]> cache_last_time_to_fp16 = cast(dtype = cache_last_time_to_fp16_dtype_0, x = cache_last_time)[name = tensor<string, []>("cast_187")];
            tensor<fp16, [1, 512, 8]> cache_3_cast_fp16 = slice_by_index(begin = cache_3_begin_0, end = cache_3_end_0, end_mask = cache_3_end_mask_0, squeeze_mask = cache_3_squeeze_mask_0, x = cache_last_time_to_fp16)[name = tensor<string, []>("cache_3_cast_fp16")];
            tensor<int32, [1]> input_27_axes_0 = const()[name = tensor<string, []>("input_27_axes_0"), val = tensor<int32, [1]>([-1])];
            tensor<fp16, [512]> encoder_layers_0_norm_feed_forward1_weight_to_fp16 = const()[name = tensor<string, []>("encoder_layers_0_norm_feed_forward1_weight_to_fp16"), val = tensor<fp16, [512]>(BLOBFILE(path = tensor<string, []>("@model_path/weights/weight.bin"), offset = tensor<uint64, []>(4737088)))];
            tensor<fp16, [512]> encoder_layers_0_norm_feed_forward1_bias_to_fp16 = const()[name = tensor<string, []>("encoder_layers_0_norm_feed_forward1_bias_to_fp16"), val = tensor<fp16, [512]>(BLOBFILE(path = tensor<string, []>("@model_path/weights/weight.bin"), offset = tensor<uint64, []>(4738176)))];
            tensor<fp16, []> var_38_to_fp16 = const()[name = tensor<string, []>("op_38_to_fp16"), val = tensor<fp16, []>(0x1.5p-17)];
            tensor<fp16, [1, 3, 512]> input_27_cast_fp16 = layer_norm(axes = input_27_axes_0, beta = encoder_layers_0_norm_feed_forward1_bias_to_fp16, epsilon = var_38_to_fp16, gamma = encoder_layers_0_norm_feed_forward1_weight_to_fp16, x = var_192_cast_fp16)[name = tensor<string, []>("input_27_cast_fp16")];
            tensor<fp16, [2048, 512]> encoder_layers_0_feed_forward1_linear1_weight_to_fp16 = const()[name = tensor<string, []>("encoder_layers_0_feed_forward1_linear1_weight_to_fp16"), val = tensor<fp16, [2048, 512]>(BLOBFILE(path = tensor<string, []>("@model_path/weights/weight.bin"), offset = tensor<uint64, []>(4739264)))];
            tensor<fp16, [2048]> linear_1_bias_0_to_fp16 = const()[name = tensor<string, []>("linear_1_bias_0_to_fp16"), val = tensor<fp16, [2048]>(BLOBFILE(path = tensor<string, []>("@model_path/weights/weight.bin"), offset = tensor<uint64, []>(6836480)))];
            tensor<fp16, [1, 3, 2048]> linear_1_cast_fp16 = linear(bias = linear_1_bias_0_to_fp16, weight = encoder_layers_0_feed_forward1_linear1_weight_to_fp16, x = input_27_cast_fp16)[name = tensor<string, []>("linear_1_cast_fp16")];
            tensor<fp16, [1, 3, 2048]> input_31_cast_fp16 = silu(x = linear_1_cast_fp16)[name = tensor<string, []>("input_31_cast_fp16")];
            tensor<fp16, [512, 2048]> encoder_layers_0_feed_forward1_linear2_weight_to_fp16 = const()[name = tensor<string, []>("encoder_layers_0_feed_forward1_linear2_weight_to_fp16"), val = tensor<fp16, [512, 2048]>(BLOBFILE(path = tensor<string, []>("@model_path/weights/weight.bin"), offset = tensor<uint64, []>(6840640)))];
            tensor<fp16, [512]> linear_2_bias_0_to_fp16 = const()[name = tensor<string, []>("linear_2_bias_0_to_fp16"), val = tensor<fp16, [512]>(BLOBFILE(path = tensor<string, []>("@model_path/weights/weight.bin"), offset = tensor<uint64, []>(8937856)))];
            tensor<fp16, [1, 3, 512]> linear_2_cast_fp16 = linear(bias = linear_2_bias_0_to_fp16, weight = encoder_layers_0_feed_forward1_linear2_weight_to_fp16, x = input_31_cast_fp16)[name = tensor<string, []>("linear_2_cast_fp16")];
            tensor<fp16, []> var_303_to_fp16 = const()[name = tensor<string, []>("op_303_to_fp16"), val = tensor<fp16, []>(0x1p-1)];
            tensor<fp16, [1, 3, 512]> var_304_cast_fp16 = mul(x = linear_2_cast_fp16, y = var_303_to_fp16)[name = tensor<string, []>("op_304_cast_fp16")];
            tensor<fp16, [1, 3, 512]> input_37_cast_fp16 = add(x = var_192_cast_fp16, y = var_304_cast_fp16)[name = tensor<string, []>("input_37_cast_fp16")];
            tensor<int32, [1]> key_1_axes_0 = const()[name = tensor<string, []>("key_1_axes_0"), val = tensor<int32, [1]>([-1])];
            tensor<fp16, [512]> encoder_layers_0_norm_self_att_weight_to_fp16 = const()[name = tensor<string, []>("encoder_layers_0_norm_self_att_weight_to_fp16"), val = tensor<fp16, [512]>(BLOBFILE(path = tensor<string, []>("@model_path/weights/weight.bin"), offset = tensor<uint64, []>(8938944)))];
            tensor<fp16, [512]> encoder_layers_0_norm_self_att_bias_to_fp16 = const()[name = tensor<string, []>("encoder_layers_0_norm_self_att_bias_to_fp16"), val = tensor<fp16, [512]>(BLOBFILE(path = tensor<string, []>("@model_path/weights/weight.bin"), offset = tensor<uint64, []>(8940032)))];
            tensor<fp16, [1, 3, 512]> key_1_cast_fp16 = layer_norm(axes = key_1_axes_0, beta = encoder_layers_0_norm_self_att_bias_to_fp16, epsilon = var_38_to_fp16, gamma = encoder_layers_0_norm_self_att_weight_to_fp16, x = input_37_cast_fp16)[name = tensor<string, []>("key_1_cast_fp16")];
            tensor<bool, []> input_39_interleave_0 = const()[name = tensor<string, []>("input_39_interleave_0"), val = tensor<bool, []>(false)];
            tensor<fp16, [1, 73, 512]> input_39_cast_fp16 = concat(axis = var_64, interleave = input_39_interleave_0, values = (cache_1_cast_fp16, key_1_cast_fp16))[name = tensor<string, []>("input_39_cast_fp16")];
            tensor<int32, [3]> var_326_begin_0 = const()[name = tensor<string, []>("op_326_begin_0"), val = tensor<int32, [3]>([0, 3, 0])];
            tensor<int32, [3]> var_326_end_0 = const()[name = tensor<string, []>("op_326_end_0"), val = tensor<int32, [3]>([1, 70, 512])];
            tensor<bool, [3]> var_326_end_mask_0 = const()[name = tensor<string, []>("op_326_end_mask_0"), val = tensor<bool, [3]>([true, true, true])];
            tensor<fp16, [1, 67, 512]> var_326_cast_fp16 = slice_by_index(begin = var_326_begin_0, end = var_326_end_0, end_mask = var_326_end_mask_0, x = cache_1_cast_fp16)[name = tensor<string, []>("op_326_cast_fp16")];
            tensor<bool, []> var_332_interleave_0 = const()[name = tensor<string, []>("op_332_interleave_0"), val = tensor<bool, []>(false)];
            tensor<fp16, [1, 70, 512]> var_332_cast_fp16 = concat(axis = var_64, interleave = var_332_interleave_0, values = (var_326_cast_fp16, key_1_cast_fp16))[name = tensor<string, []>("op_332_cast_fp16")];
            tensor<fp16, [512, 512]> encoder_layers_0_self_attn_linear_q_weight_to_fp16 = const()[name = tensor<string, []>("encoder_layers_0_self_attn_linear_q_weight_to_fp16"), val = tensor<fp16, [512, 512]>(BLOBFILE(path = tensor<string, []>("@model_path/weights/weight.bin"), offset = tensor<uint64, []>(8941120)))];
            tensor<fp16, [1, 3, 512]> linear_3_cast_fp16 = linear(bias = linear_2_bias_0_to_fp16, weight = encoder_layers_0_self_attn_linear_q_weight_to_fp16, x = key_1_cast_fp16)[name = tensor<string, []>("linear_3_cast_fp16")];
            tensor<int32, [4]> var_336 = const()[name = tensor<string, []>("op_336"), val = tensor<int32, [4]>([1, -1, 8, 64])];
            tensor<fp16, [1, 3, 8, 64]> q_1_cast_fp16 = reshape(shape = var_336, x = linear_3_cast_fp16)[name = tensor<string, []>("q_1_cast_fp16")];
            tensor<fp16, [512, 512]> encoder_layers_0_self_attn_linear_k_weight_to_fp16 = const()[name = tensor<string, []>("encoder_layers_0_self_attn_linear_k_weight_to_fp16"), val = tensor<fp16, [512, 512]>(BLOBFILE(path = tensor<string, []>("@model_path/weights/weight.bin"), offset = tensor<uint64, []>(9465472)))];
            tensor<fp16, [1, 73, 512]> linear_4_cast_fp16 = linear(bias = linear_2_bias_0_to_fp16, weight = encoder_layers_0_self_attn_linear_k_weight_to_fp16, x = input_39_cast_fp16)[name = tensor<string, []>("linear_4_cast_fp16")];
            tensor<int32, [4]> var_340 = const()[name = tensor<string, []>("op_340"), val = tensor<int32, [4]>([1, -1, 8, 64])];
            tensor<fp16, [1, 73, 8, 64]> k_1_cast_fp16 = reshape(shape = var_340, x = linear_4_cast_fp16)[name = tensor<string, []>("k_1_cast_fp16")];
            tensor<fp16, [512, 512]> encoder_layers_0_self_attn_linear_v_weight_to_fp16 = const()[name = tensor<string, []>("encoder_layers_0_self_attn_linear_v_weight_to_fp16"), val = tensor<fp16, [512, 512]>(BLOBFILE(path = tensor<string, []>("@model_path/weights/weight.bin"), offset = tensor<uint64, []>(9989824)))];
            tensor<fp16, [1, 73, 512]> linear_5_cast_fp16 = linear(bias = linear_2_bias_0_to_fp16, weight = encoder_layers_0_self_attn_linear_v_weight_to_fp16, x = input_39_cast_fp16)[name = tensor<string, []>("linear_5_cast_fp16")];
            tensor<int32, [4]> var_344 = const()[name = tensor<string, []>("op_344"), val = tensor<int32, [4]>([1, -1, 8, 64])];
            tensor<fp16, [1, 73, 8, 64]> v_1_cast_fp16 = reshape(shape = var_344, x = linear_5_cast_fp16)[name = tensor<string, []>("v_1_cast_fp16")];
            tensor<int32, [4]> value_3_perm_0 = const()[name = tensor<string, []>("value_3_perm_0"), val = tensor<int32, [4]>([0, 2, 1, 3])];
            tensor<fp16, [8, 64]> encoder_layers_0_self_attn_pos_bias_u_to_fp16 = const()[name = tensor<string, []>("encoder_layers_0_self_attn_pos_bias_u_to_fp16"), val = tensor<fp16, [8, 64]>(BLOBFILE(path = tensor<string, []>("@model_path/weights/weight.bin"), offset = tensor<uint64, []>(10514176)))];
            tensor<fp16, [1, 3, 8, 64]> var_356_cast_fp16 = add(x = q_1_cast_fp16, y = encoder_layers_0_self_attn_pos_bias_u_to_fp16)[name = tensor<string, []>("op_356_cast_fp16")];
            tensor<fp16, [8, 64]> encoder_layers_0_self_attn_pos_bias_v_to_fp16 = const()[name = tensor<string, []>("encoder_layers_0_self_attn_pos_bias_v_to_fp16"), val = tensor<fp16, [8, 64]>(BLOBFILE(path = tensor<string, []>("@model_path/weights/weight.bin"), offset = tensor<uint64, []>(10515264)))];
            tensor<fp16, [1, 3, 8, 64]> var_358_cast_fp16 = add(x = q_1_cast_fp16, y = encoder_layers_0_self_attn_pos_bias_v_to_fp16)[name = tensor<string, []>("op_358_cast_fp16")];
            tensor<int32, [4]> q_with_bias_v_1_perm_0 = const()[name = tensor<string, []>("q_with_bias_v_1_perm_0"), val = tensor<int32, [4]>([0, 2, 1, 3])];
            tensor<bool, []> x_7_transpose_x_0 = const()[name = tensor<string, []>("x_7_transpose_x_0"), val = tensor<bool, []>(false)];
            tensor<bool, []> x_7_transpose_y_0 = const()[name = tensor<string, []>("x_7_transpose_y_0"), val = tensor<bool, []>(false)];
            tensor<fp16, [1, 8, 64, 145]> var_360_to_fp16 = const()[name = tensor<string, []>("op_360_to_fp16"), val = tensor<fp16, [1, 8, 64, 145]>(BLOBFILE(path = tensor<string, []>("@model_path/weights/weight.bin"), offset = tensor<uint64, []>(10516352)))];
            tensor<fp16, [1, 8, 3, 64]> q_with_bias_v_1_cast_fp16 = transpose(perm = q_with_bias_v_1_perm_0, x = var_358_cast_fp16)[name = tensor<string, []>("transpose_237")];
            tensor<fp16, [1, 8, 3, 145]> x_7_cast_fp16 = matmul(transpose_x = x_7_transpose_x_0, transpose_y = x_7_transpose_y_0, x = q_with_bias_v_1_cast_fp16, y = var_360_to_fp16)[name = tensor<string, []>("x_7_cast_fp16")];
            tensor<int32, [8]> x_9_pad_0 = const()[name = tensor<string, []>("x_9_pad_0"), val = tensor<int32, [8]>([0, 0, 0, 0, 0, 0, 1, 0])];
            tensor<string, []> x_9_mode_0 = const()[name = tensor<string, []>("x_9_mode_0"), val = tensor<string, []>("constant")];
            tensor<fp16, []> const_23_to_fp16 = const()[name = tensor<string, []>("const_23_to_fp16"), val = tensor<fp16, []>(0x0p+0)];
            tensor<fp16, [1, 8, 3, 146]> x_9_cast_fp16 = pad(constant_val = const_23_to_fp16, mode = x_9_mode_0, pad = x_9_pad_0, x = x_7_cast_fp16)[name = tensor<string, []>("x_9_cast_fp16")];
            tensor<int32, [4]> var_368 = const()[name = tensor<string, []>("op_368"), val = tensor<int32, [4]>([1, 8, -1, 3])];
            tensor<fp16, [1, 8, 146, 3]> x_11_cast_fp16 = reshape(shape = var_368, x = x_9_cast_fp16)[name = tensor<string, []>("x_11_cast_fp16")];
            tensor<int32, [4]> var_372_begin_0 = const()[name = tensor<string, []>("op_372_begin_0"), val = tensor<int32, [4]>([0, 0, 1, 0])];
            tensor<int32, [4]> var_372_end_0 = const()[name = tensor<string, []>("op_372_end_0"), val = tensor<int32, [4]>([1, 8, 146, 3])];
            tensor<bool, [4]> var_372_end_mask_0 = const()[name = tensor<string, []>("op_372_end_mask_0"), val = tensor<bool, [4]>([true, true, true, true])];
            tensor<fp16, [1, 8, 145, 3]> var_372_cast_fp16 = slice_by_index(begin = var_372_begin_0, end = var_372_end_0, end_mask = var_372_end_mask_0, x = x_11_cast_fp16)[name = tensor<string, []>("op_372_cast_fp16")];
            tensor<int32, [4]> var_373 = const()[name = tensor<string, []>("op_373"), val = tensor<int32, [4]>([1, 8, 3, 145])];
            tensor<fp16, [1, 8, 3, 145]> matrix_bd_1_cast_fp16 = reshape(shape = var_373, x = var_372_cast_fp16)[name = tensor<string, []>("matrix_bd_1_cast_fp16")];
            tensor<bool, []> matrix_ac_1_transpose_x_0 = const()[name = tensor<string, []>("matrix_ac_1_transpose_x_0"), val = tensor<bool, []>(false)];
            tensor<bool, []> matrix_ac_1_transpose_y_0 = const()[name = tensor<string, []>("matrix_ac_1_transpose_y_0"), val = tensor<bool, []>(false)];
            tensor<int32, [4]> transpose_51_perm_0 = const()[name = tensor<string, []>("transpose_51_perm_0"), val = tensor<int32, [4]>([0, 2, -3, -1])];
            tensor<int32, [4]> transpose_52_perm_0 = const()[name = tensor<string, []>("transpose_52_perm_0"), val = tensor<int32, [4]>([0, 2, -1, -3])];
            tensor<fp16, [1, 8, 64, 73]> transpose_52 = transpose(perm = transpose_52_perm_0, x = k_1_cast_fp16)[name = tensor<string, []>("transpose_235")];
            tensor<fp16, [1, 8, 3, 64]> transpose_51 = transpose(perm = transpose_51_perm_0, x = var_356_cast_fp16)[name = tensor<string, []>("transpose_236")];
            tensor<fp16, [1, 8, 3, 73]> matrix_ac_1_cast_fp16 = matmul(transpose_x = matrix_ac_1_transpose_x_0, transpose_y = matrix_ac_1_transpose_y_0, x = transpose_51, y = transpose_52)[name = tensor<string, []>("matrix_ac_1_cast_fp16")];
            tensor<int32, [4]> matrix_bd_3_begin_0 = const()[name = tensor<string, []>("matrix_bd_3_begin_0"), val = tensor<int32, [4]>([0, 0, 0, 0])];
            tensor<int32, [4]> matrix_bd_3_end_0 = const()[name = tensor<string, []>("matrix_bd_3_end_0"), val = tensor<int32, [4]>([1, 8, 3, 73])];
            tensor<bool, [4]> matrix_bd_3_end_mask_0 = const()[name = tensor<string, []>("matrix_bd_3_end_mask_0"), val = tensor<bool, [4]>([true, true, true, false])];
            tensor<fp16, [1, 8, 3, 73]> matrix_bd_3_cast_fp16 = slice_by_index(begin = matrix_bd_3_begin_0, end = matrix_bd_3_end_0, end_mask = matrix_bd_3_end_mask_0, x = matrix_bd_1_cast_fp16)[name = tensor<string, []>("matrix_bd_3_cast_fp16")];
            tensor<fp16, [1, 8, 3, 73]> var_382_cast_fp16 = add(x = matrix_ac_1_cast_fp16, y = matrix_bd_3_cast_fp16)[name = tensor<string, []>("op_382_cast_fp16")];
            tensor<fp16, []> _inversed_scores_1_y_0_to_fp16 = const()[name = tensor<string, []>("_inversed_scores_1_y_0_to_fp16"), val = tensor<fp16, []>(0x1p-3)];
            tensor<fp16, [1, 8, 3, 73]> _inversed_scores_1_cast_fp16 = mul(x = var_382_cast_fp16, y = _inversed_scores_1_y_0_to_fp16)[name = tensor<string, []>("_inversed_scores_1_cast_fp16")];
            tensor<int32, [1]> mask_3_axes_0 = const()[name = tensor<string, []>("mask_3_axes_0"), val = tensor<int32, [1]>([1])];
            tensor<bool, [1, 1, 3, 73]> mask_3 = expand_dims(axes = mask_3_axes_0, x = mask_1)[name = tensor<string, []>("mask_3")];
            tensor<fp16, []> var_41_to_fp16 = const()[name = tensor<string, []>("op_41_to_fp16"), val = tensor<fp16, []>(-0x1.388p+13)];
            tensor<fp16, [1, 8, 3, 73]> scores_3_cast_fp16 = select(a = var_41_to_fp16, b = _inversed_scores_1_cast_fp16, cond = mask_3)[name = tensor<string, []>("scores_3_cast_fp16")];
            tensor<fp16, [1, 8, 3, 73]> var_388_cast_fp16 = softmax(axis = var_62, x = scores_3_cast_fp16)[name = tensor<string, []>("op_388_cast_fp16")];
            tensor<fp16, []> var_40_to_fp16 = const()[name = tensor<string, []>("op_40_to_fp16"), val = tensor<fp16, []>(0x0p+0)];
            tensor<fp16, [1, 8, 3, 73]> input_41_cast_fp16 = select(a = var_40_to_fp16, b = var_388_cast_fp16, cond = mask_3)[name = tensor<string, []>("input_41_cast_fp16")];
            tensor<bool, []> x_13_transpose_x_0 = const()[name = tensor<string, []>("x_13_transpose_x_0"), val = tensor<bool, []>(false)];
            tensor<bool, []> x_13_transpose_y_0 = const()[name = tensor<string, []>("x_13_transpose_y_0"), val = tensor<bool, []>(false)];
            tensor<fp16, [1, 8, 73, 64]> value_3_cast_fp16 = transpose(perm = value_3_perm_0, x = v_1_cast_fp16)[name = tensor<string, []>("transpose_238")];
            tensor<fp16, [1, 8, 3, 64]> x_13_cast_fp16 = matmul(transpose_x = x_13_transpose_x_0, transpose_y = x_13_transpose_y_0, x = input_41_cast_fp16, y = value_3_cast_fp16)[name = tensor<string, []>("x_13_cast_fp16")];
            tensor<int32, [4]> var_392_perm_0 = const()[name = tensor<string, []>("op_392_perm_0"), val = tensor<int32, [4]>([0, 2, 1, 3])];
            tensor<int32, [3]> var_393 = const()[name = tensor<string, []>("op_393"), val = tensor<int32, [3]>([1, -1, 512])];
            tensor<fp16, [1, 3, 8, 64]> var_392_cast_fp16 = transpose(perm = var_392_perm_0, x = x_13_cast_fp16)[name = tensor<string, []>("transpose_234")];
            tensor<fp16, [1, 3, 512]> input_43_cast_fp16 = reshape(shape = var_393, x = var_392_cast_fp16)[name = tensor<string, []>("input_43_cast_fp16")];
            tensor<fp16, [512, 512]> encoder_layers_0_self_attn_linear_out_weight_to_fp16 = const()[name = tensor<string, []>("encoder_layers_0_self_attn_linear_out_weight_to_fp16"), val = tensor<fp16, [512, 512]>(BLOBFILE(path = tensor<string, []>("@model_path/weights/weight.bin"), offset = tensor<uint64, []>(10664896)))];
            tensor<fp16, [1, 3, 512]> linear_7_cast_fp16 = linear(bias = linear_2_bias_0_to_fp16, weight = encoder_layers_0_self_attn_linear_out_weight_to_fp16, x = input_43_cast_fp16)[name = tensor<string, []>("linear_7_cast_fp16")];
            tensor<fp16, [1, 3, 512]> input_47_cast_fp16 = add(x = input_37_cast_fp16, y = linear_7_cast_fp16)[name = tensor<string, []>("input_47_cast_fp16")];
            tensor<int32, [1]> x_17_axes_0 = const()[name = tensor<string, []>("x_17_axes_0"), val = tensor<int32, [1]>([-1])];
            tensor<fp16, [512]> encoder_layers_0_norm_conv_weight_to_fp16 = const()[name = tensor<string, []>("encoder_layers_0_norm_conv_weight_to_fp16"), val = tensor<fp16, [512]>(BLOBFILE(path = tensor<string, []>("@model_path/weights/weight.bin"), offset = tensor<uint64, []>(11189248)))];
            tensor<fp16, [512]> encoder_layers_0_norm_conv_bias_to_fp16 = const()[name = tensor<string, []>("encoder_layers_0_norm_conv_bias_to_fp16"), val = tensor<fp16, [512]>(BLOBFILE(path = tensor<string, []>("@model_path/weights/weight.bin"), offset = tensor<uint64, []>(11190336)))];
            tensor<fp16, [1, 3, 512]> x_17_cast_fp16 = layer_norm(axes = x_17_axes_0, beta = encoder_layers_0_norm_conv_bias_to_fp16, epsilon = var_38_to_fp16, gamma = encoder_layers_0_norm_conv_weight_to_fp16, x = input_47_cast_fp16)[name = tensor<string, []>("x_17_cast_fp16")];
            tensor<int32, [3]> input_49_perm_0 = const()[name = tensor<string, []>("input_49_perm_0"), val = tensor<int32, [3]>([0, 2, 1])];
            tensor<string, []> input_51_pad_type_0 = const()[name = tensor<string, []>("input_51_pad_type_0"), val = tensor<string, []>("valid")];
            tensor<int32, [1]> input_51_strides_0 = const()[name = tensor<string, []>("input_51_strides_0"), val = tensor<int32, [1]>([1])];
            tensor<int32, [2]> input_51_pad_0 = const()[name = tensor<string, []>("input_51_pad_0"), val = tensor<int32, [2]>([0, 0])];
            tensor<int32, [1]> input_51_dilations_0 = const()[name = tensor<string, []>("input_51_dilations_0"), val = tensor<int32, [1]>([1])];
            tensor<int32, []> input_51_groups_0 = const()[name = tensor<string, []>("input_51_groups_0"), val = tensor<int32, []>(1)];
            tensor<fp16, [1024, 512, 1]> encoder_layers_0_conv_pointwise_conv1_weight_to_fp16 = const()[name = tensor<string, []>("encoder_layers_0_conv_pointwise_conv1_weight_to_fp16"), val = tensor<fp16, [1024, 512, 1]>(BLOBFILE(path = tensor<string, []>("@model_path/weights/weight.bin"), offset = tensor<uint64, []>(11191424)))];
            tensor<fp16, [1, 512, 3]> input_49_cast_fp16 = transpose(perm = input_49_perm_0, x = x_17_cast_fp16)[name = tensor<string, []>("transpose_233")];
            tensor<fp16, [1, 1024, 3]> input_51_cast_fp16 = conv(dilations = input_51_dilations_0, groups = input_51_groups_0, pad = input_51_pad_0, pad_type = input_51_pad_type_0, strides = input_51_strides_0, weight = encoder_layers_0_conv_pointwise_conv1_weight_to_fp16, x = input_49_cast_fp16)[name = tensor<string, []>("input_51_cast_fp16")];
            tensor<int32, []> x_19_split_num_splits_0 = const()[name = tensor<string, []>("x_19_split_num_splits_0"), val = tensor<int32, []>(2)];
            tensor<int32, []> x_19_split_axis_0 = const()[name = tensor<string, []>("x_19_split_axis_0"), val = tensor<int32, []>(1)];
            tensor<fp16, [1, 512, 3]> x_19_split_cast_fp16_0, tensor<fp16, [1, 512, 3]> x_19_split_cast_fp16_1 = split(axis = x_19_split_axis_0, num_splits = x_19_split_num_splits_0, x = input_51_cast_fp16)[name = tensor<string, []>("x_19_split_cast_fp16")];
            tensor<fp16, [1, 512, 3]> x_19_split_1_sigmoid_cast_fp16 = sigmoid(x = x_19_split_cast_fp16_1)[name = tensor<string, []>("x_19_split_1_sigmoid_cast_fp16")];
            tensor<fp16, [1, 512, 3]> x_19_cast_fp16 = mul(x = x_19_split_cast_fp16_0, y = x_19_split_1_sigmoid_cast_fp16)[name = tensor<string, []>("x_19_cast_fp16")];
            tensor<int32, [1]> var_418_axes_0 = const()[name = tensor<string, []>("op_418_axes_0"), val = tensor<int32, [1]>([1])];
            tensor<bool, [1, 1, 3]> var_418 = expand_dims(axes = var_418_axes_0, x = pad_mask)[name = tensor<string, []>("op_418")];
            tensor<fp16, [1, 512, 3]> input_53_cast_fp16 = select(a = var_40_to_fp16, b = x_19_cast_fp16, cond = var_418)[name = tensor<string, []>("input_53_cast_fp16")];
            tensor<bool, []> new_x_3_interleave_0 = const()[name = tensor<string, []>("new_x_3_interleave_0"), val = tensor<bool, []>(false)];
            tensor<fp16, [1, 512, 11]> new_x_3_cast_fp16 = concat(axis = var_62, interleave = new_x_3_interleave_0, values = (cache_3_cast_fp16, input_53_cast_fp16))[name = tensor<string, []>("new_x_3_cast_fp16")];
            tensor<int32, [3]> var_431_begin_0 = const()[name = tensor<string, []>("op_431_begin_0"), val = tensor<int32, [3]>([0, 0, 3])];
            tensor<int32, [3]> var_431_end_0 = const()[name = tensor<string, []>("op_431_end_0"), val = tensor<int32, [3]>([1, 512, 11])];
            tensor<bool, [3]> var_431_end_mask_0 = const()[name = tensor<string, []>("op_431_end_mask_0"), val = tensor<bool, [3]>([true, true, true])];
            tensor<fp16, [1, 512, 8]> var_431_cast_fp16 = slice_by_index(begin = var_431_begin_0, end = var_431_end_0, end_mask = var_431_end_mask_0, x = new_x_3_cast_fp16)[name = tensor<string, []>("op_431_cast_fp16")];
            tensor<string, []> x_21_pad_type_0 = const()[name = tensor<string, []>("x_21_pad_type_0"), val = tensor<string, []>("valid")];
            tensor<int32, []> x_21_groups_0 = const()[name = tensor<string, []>("x_21_groups_0"), val = tensor<int32, []>(512)];
            tensor<int32, [1]> x_21_strides_0 = const()[name = tensor<string, []>("x_21_strides_0"), val = tensor<int32, [1]>([1])];
            tensor<int32, [2]> x_21_pad_0 = const()[name = tensor<string, []>("x_21_pad_0"), val = tensor<int32, [2]>([0, 0])];
            tensor<int32, [1]> x_21_dilations_0 = const()[name = tensor<string, []>("x_21_dilations_0"), val = tensor<int32, [1]>([1])];
            tensor<fp16, [512, 1, 9]> encoder_layers_0_conv_depthwise_conv_weight_to_fp16 = const()[name = tensor<string, []>("encoder_layers_0_conv_depthwise_conv_weight_to_fp16"), val = tensor<fp16, [512, 1, 9]>(BLOBFILE(path = tensor<string, []>("@model_path/weights/weight.bin"), offset = tensor<uint64, []>(12240064)))];
            tensor<fp16, [1, 512, 3]> x_21_cast_fp16 = conv(dilations = x_21_dilations_0, groups = x_21_groups_0, pad = x_21_pad_0, pad_type = x_21_pad_type_0, strides = x_21_strides_0, weight = encoder_layers_0_conv_depthwise_conv_weight_to_fp16, x = new_x_3_cast_fp16)[name = tensor<string, []>("x_21_cast_fp16")];
            tensor<int32, [3]> input_55_perm_0 = const()[name = tensor<string, []>("input_55_perm_0"), val = tensor<int32, [3]>([0, 2, 1])];
            tensor<int32, [1]> x_23_axes_0 = const()[name = tensor<string, []>("x_23_axes_0"), val = tensor<int32, [1]>([-1])];
            tensor<fp16, [512]> encoder_layers_0_conv_batch_norm_weight_to_fp16 = const()[name = tensor<string, []>("encoder_layers_0_conv_batch_norm_weight_to_fp16"), val = tensor<fp16, [512]>(BLOBFILE(path = tensor<string, []>("@model_path/weights/weight.bin"), offset = tensor<uint64, []>(12249344)))];
            tensor<fp16, [512]> encoder_layers_0_conv_batch_norm_bias_to_fp16 = const()[name = tensor<string, []>("encoder_layers_0_conv_batch_norm_bias_to_fp16"), val = tensor<fp16, [512]>(BLOBFILE(path = tensor<string, []>("@model_path/weights/weight.bin"), offset = tensor<uint64, []>(12250432)))];
            tensor<fp16, [1, 3, 512]> input_55_cast_fp16 = transpose(perm = input_55_perm_0, x = x_21_cast_fp16)[name = tensor<string, []>("transpose_232")];
            tensor<fp16, [1, 3, 512]> x_23_cast_fp16 = layer_norm(axes = x_23_axes_0, beta = encoder_layers_0_conv_batch_norm_bias_to_fp16, epsilon = var_38_to_fp16, gamma = encoder_layers_0_conv_batch_norm_weight_to_fp16, x = input_55_cast_fp16)[name = tensor<string, []>("x_23_cast_fp16")];
            tensor<int32, [3]> input_57_perm_0 = const()[name = tensor<string, []>("input_57_perm_0"), val = tensor<int32, [3]>([0, 2, 1])];
            tensor<fp16, [1, 512, 3]> input_57_cast_fp16 = transpose(perm = input_57_perm_0, x = x_23_cast_fp16)[name = tensor<string, []>("transpose_231")];
            tensor<fp16, [1, 512, 3]> input_59_cast_fp16 = silu(x = input_57_cast_fp16)[name = tensor<string, []>("input_59_cast_fp16")];
            tensor<string, []> x_25_pad_type_0 = const()[name = tensor<string, []>("x_25_pad_type_0"), val = tensor<string, []>("valid")];
            tensor<int32, [1]> x_25_strides_0 = const()[name = tensor<string, []>("x_25_strides_0"), val = tensor<int32, [1]>([1])];
            tensor<int32, [2]> x_25_pad_0 = const()[name = tensor<string, []>("x_25_pad_0"), val = tensor<int32, [2]>([0, 0])];
            tensor<int32, [1]> x_25_dilations_0 = const()[name = tensor<string, []>("x_25_dilations_0"), val = tensor<int32, [1]>([1])];
            tensor<int32, []> x_25_groups_0 = const()[name = tensor<string, []>("x_25_groups_0"), val = tensor<int32, []>(1)];
            tensor<fp16, [512, 512, 1]> encoder_layers_0_conv_pointwise_conv2_weight_to_fp16 = const()[name = tensor<string, []>("encoder_layers_0_conv_pointwise_conv2_weight_to_fp16"), val = tensor<fp16, [512, 512, 1]>(BLOBFILE(path = tensor<string, []>("@model_path/weights/weight.bin"), offset = tensor<uint64, []>(12251520)))];
            tensor<fp16, [1, 512, 3]> x_25_cast_fp16 = conv(dilations = x_25_dilations_0, groups = x_25_groups_0, pad = x_25_pad_0, pad_type = x_25_pad_type_0, strides = x_25_strides_0, weight = encoder_layers_0_conv_pointwise_conv2_weight_to_fp16, x = input_59_cast_fp16)[name = tensor<string, []>("x_25_cast_fp16")];
            tensor<int32, [3]> input_61_perm_0 = const()[name = tensor<string, []>("input_61_perm_0"), val = tensor<int32, [3]>([0, 2, 1])];
            tensor<fp16, [1, 3, 512]> input_61_cast_fp16 = transpose(perm = input_61_perm_0, x = x_25_cast_fp16)[name = tensor<string, []>("transpose_230")];
            tensor<fp16, [1, 3, 512]> input_63_cast_fp16 = add(x = input_47_cast_fp16, y = input_61_cast_fp16)[name = tensor<string, []>("input_63_cast_fp16")];
            tensor<int32, [1]> input_65_axes_0 = const()[name = tensor<string, []>("input_65_axes_0"), val = tensor<int32, [1]>([-1])];
            tensor<fp16, [512]> encoder_layers_0_norm_feed_forward2_weight_to_fp16 = const()[name = tensor<string, []>("encoder_layers_0_norm_feed_forward2_weight_to_fp16"), val = tensor<fp16, [512]>(BLOBFILE(path = tensor<string, []>("@model_path/weights/weight.bin"), offset = tensor<uint64, []>(12775872)))];
            tensor<fp16, [512]> encoder_layers_0_norm_feed_forward2_bias_to_fp16 = const()[name = tensor<string, []>("encoder_layers_0_norm_feed_forward2_bias_to_fp16"), val = tensor<fp16, [512]>(BLOBFILE(path = tensor<string, []>("@model_path/weights/weight.bin"), offset = tensor<uint64, []>(12776960)))];
            tensor<fp16, [1, 3, 512]> input_65_cast_fp16 = layer_norm(axes = input_65_axes_0, beta = encoder_layers_0_norm_feed_forward2_bias_to_fp16, epsilon = var_38_to_fp16, gamma = encoder_layers_0_norm_feed_forward2_weight_to_fp16, x = input_63_cast_fp16)[name = tensor<string, []>("input_65_cast_fp16")];
            tensor<fp16, [2048, 512]> encoder_layers_0_feed_forward2_linear1_weight_to_fp16 = const()[name = tensor<string, []>("encoder_layers_0_feed_forward2_linear1_weight_to_fp16"), val = tensor<fp16, [2048, 512]>(BLOBFILE(path = tensor<string, []>("@model_path/weights/weight.bin"), offset = tensor<uint64, []>(12778048)))];
            tensor<fp16, [1, 3, 2048]> linear_8_cast_fp16 = linear(bias = linear_1_bias_0_to_fp16, weight = encoder_layers_0_feed_forward2_linear1_weight_to_fp16, x = input_65_cast_fp16)[name = tensor<string, []>("linear_8_cast_fp16")];
            tensor<fp16, [1, 3, 2048]> input_69_cast_fp16 = silu(x = linear_8_cast_fp16)[name = tensor<string, []>("input_69_cast_fp16")];
            tensor<fp16, [512, 2048]> encoder_layers_0_feed_forward2_linear2_weight_to_fp16 = const()[name = tensor<string, []>("encoder_layers_0_feed_forward2_linear2_weight_to_fp16"), val = tensor<fp16, [512, 2048]>(BLOBFILE(path = tensor<string, []>("@model_path/weights/weight.bin"), offset = tensor<uint64, []>(14875264)))];
            tensor<fp16, [1, 3, 512]> linear_9_cast_fp16 = linear(bias = linear_2_bias_0_to_fp16, weight = encoder_layers_0_feed_forward2_linear2_weight_to_fp16, x = input_69_cast_fp16)[name = tensor<string, []>("linear_9_cast_fp16")];
            tensor<fp16, []> var_472_to_fp16 = const()[name = tensor<string, []>("op_472_to_fp16"), val = tensor<fp16, []>(0x1p-1)];
            tensor<fp16, [1, 3, 512]> var_473_cast_fp16 = mul(x = linear_9_cast_fp16, y = var_472_to_fp16)[name = tensor<string, []>("op_473_cast_fp16")];
            tensor<fp16, [1, 3, 512]> input_75_cast_fp16 = add(x = input_63_cast_fp16, y = var_473_cast_fp16)[name = tensor<string, []>("input_75_cast_fp16")];
            tensor<int32, [1]> input_77_axes_0 = const()[name = tensor<string, []>("input_77_axes_0"), val = tensor<int32, [1]>([-1])];
            tensor<fp16, [512]> encoder_layers_0_norm_out_weight_to_fp16 = const()[name = tensor<string, []>("encoder_layers_0_norm_out_weight_to_fp16"), val = tensor<fp16, [512]>(BLOBFILE(path = tensor<string, []>("@model_path/weights/weight.bin"), offset = tensor<uint64, []>(16972480)))];
            tensor<fp16, [512]> encoder_layers_0_norm_out_bias_to_fp16 = const()[name = tensor<string, []>("encoder_layers_0_norm_out_bias_to_fp16"), val = tensor<fp16, [512]>(BLOBFILE(path = tensor<string, []>("@model_path/weights/weight.bin"), offset = tensor<uint64, []>(16973568)))];
            tensor<fp16, [1, 3, 512]> input_77_cast_fp16 = layer_norm(axes = input_77_axes_0, beta = encoder_layers_0_norm_out_bias_to_fp16, epsilon = var_38_to_fp16, gamma = encoder_layers_0_norm_out_weight_to_fp16, x = input_75_cast_fp16)[name = tensor<string, []>("input_77_cast_fp16")];
            tensor<int32, [4]> cache_5_begin_0 = const()[name = tensor<string, []>("cache_5_begin_0"), val = tensor<int32, [4]>([1, 0, 0, 0])];
            tensor<int32, [4]> cache_5_end_0 = const()[name = tensor<string, []>("cache_5_end_0"), val = tensor<int32, [4]>([2, 1, 70, 512])];
            tensor<bool, [4]> cache_5_end_mask_0 = const()[name = tensor<string, []>("cache_5_end_mask_0"), val = tensor<bool, [4]>([false, true, true, true])];
            tensor<bool, [4]> cache_5_squeeze_mask_0 = const()[name = tensor<string, []>("cache_5_squeeze_mask_0"), val = tensor<bool, [4]>([true, false, false, false])];
            tensor<fp16, [1, 70, 512]> cache_5_cast_fp16 = slice_by_index(begin = cache_5_begin_0, end = cache_5_end_0, end_mask = cache_5_end_mask_0, squeeze_mask = cache_5_squeeze_mask_0, x = cache_last_channel_to_fp16)[name = tensor<string, []>("cache_5_cast_fp16")];
            tensor<int32, [4]> cache_7_begin_0 = const()[name = tensor<string, []>("cache_7_begin_0"), val = tensor<int32, [4]>([1, 0, 0, 0])];
            tensor<int32, [4]> cache_7_end_0 = const()[name = tensor<string, []>("cache_7_end_0"), val = tensor<int32, [4]>([2, 1, 512, 8])];
            tensor<bool, [4]> cache_7_end_mask_0 = const()[name = tensor<string, []>("cache_7_end_mask_0"), val = tensor<bool, [4]>([false, true, true, true])];
            tensor<bool, [4]> cache_7_squeeze_mask_0 = const()[name = tensor<string, []>("cache_7_squeeze_mask_0"), val = tensor<bool, [4]>([true, false, false, false])];
            tensor<fp16, [1, 512, 8]> cache_7_cast_fp16 = slice_by_index(begin = cache_7_begin_0, end = cache_7_end_0, end_mask = cache_7_end_mask_0, squeeze_mask = cache_7_squeeze_mask_0, x = cache_last_time_to_fp16)[name = tensor<string, []>("cache_7_cast_fp16")];
            tensor<int32, [1]> input_79_axes_0 = const()[name = tensor<string, []>("input_79_axes_0"), val = tensor<int32, [1]>([-1])];
            tensor<fp16, [512]> encoder_layers_1_norm_feed_forward1_weight_to_fp16 = const()[name = tensor<string, []>("encoder_layers_1_norm_feed_forward1_weight_to_fp16"), val = tensor<fp16, [512]>(BLOBFILE(path = tensor<string, []>("@model_path/weights/weight.bin"), offset = tensor<uint64, []>(16974656)))];
            tensor<fp16, [512]> encoder_layers_1_norm_feed_forward1_bias_to_fp16 = const()[name = tensor<string, []>("encoder_layers_1_norm_feed_forward1_bias_to_fp16"), val = tensor<fp16, [512]>(BLOBFILE(path = tensor<string, []>("@model_path/weights/weight.bin"), offset = tensor<uint64, []>(16975744)))];
            tensor<fp16, [1, 3, 512]> input_79_cast_fp16 = layer_norm(axes = input_79_axes_0, beta = encoder_layers_1_norm_feed_forward1_bias_to_fp16, epsilon = var_38_to_fp16, gamma = encoder_layers_1_norm_feed_forward1_weight_to_fp16, x = input_77_cast_fp16)[name = tensor<string, []>("input_79_cast_fp16")];
            tensor<fp16, [2048, 512]> encoder_layers_1_feed_forward1_linear1_weight_to_fp16 = const()[name = tensor<string, []>("encoder_layers_1_feed_forward1_linear1_weight_to_fp16"), val = tensor<fp16, [2048, 512]>(BLOBFILE(path = tensor<string, []>("@model_path/weights/weight.bin"), offset = tensor<uint64, []>(16976832)))];
            tensor<fp16, [1, 3, 2048]> linear_10_cast_fp16 = linear(bias = linear_1_bias_0_to_fp16, weight = encoder_layers_1_feed_forward1_linear1_weight_to_fp16, x = input_79_cast_fp16)[name = tensor<string, []>("linear_10_cast_fp16")];
            tensor<fp16, [1, 3, 2048]> input_83_cast_fp16 = silu(x = linear_10_cast_fp16)[name = tensor<string, []>("input_83_cast_fp16")];
            tensor<fp16, [512, 2048]> encoder_layers_1_feed_forward1_linear2_weight_to_fp16 = const()[name = tensor<string, []>("encoder_layers_1_feed_forward1_linear2_weight_to_fp16"), val = tensor<fp16, [512, 2048]>(BLOBFILE(path = tensor<string, []>("@model_path/weights/weight.bin"), offset = tensor<uint64, []>(19074048)))];
            tensor<fp16, [1, 3, 512]> linear_11_cast_fp16 = linear(bias = linear_2_bias_0_to_fp16, weight = encoder_layers_1_feed_forward1_linear2_weight_to_fp16, x = input_83_cast_fp16)[name = tensor<string, []>("linear_11_cast_fp16")];
            tensor<fp16, []> var_507_to_fp16 = const()[name = tensor<string, []>("op_507_to_fp16"), val = tensor<fp16, []>(0x1p-1)];
            tensor<fp16, [1, 3, 512]> var_508_cast_fp16 = mul(x = linear_11_cast_fp16, y = var_507_to_fp16)[name = tensor<string, []>("op_508_cast_fp16")];
            tensor<fp16, [1, 3, 512]> input_89_cast_fp16 = add(x = input_77_cast_fp16, y = var_508_cast_fp16)[name = tensor<string, []>("input_89_cast_fp16")];
            tensor<int32, [1]> key_3_axes_0 = const()[name = tensor<string, []>("key_3_axes_0"), val = tensor<int32, [1]>([-1])];
            tensor<fp16, [512]> encoder_layers_1_norm_self_att_weight_to_fp16 = const()[name = tensor<string, []>("encoder_layers_1_norm_self_att_weight_to_fp16"), val = tensor<fp16, [512]>(BLOBFILE(path = tensor<string, []>("@model_path/weights/weight.bin"), offset = tensor<uint64, []>(21171264)))];
            tensor<fp16, [512]> encoder_layers_1_norm_self_att_bias_to_fp16 = const()[name = tensor<string, []>("encoder_layers_1_norm_self_att_bias_to_fp16"), val = tensor<fp16, [512]>(BLOBFILE(path = tensor<string, []>("@model_path/weights/weight.bin"), offset = tensor<uint64, []>(21172352)))];
            tensor<fp16, [1, 3, 512]> key_3_cast_fp16 = layer_norm(axes = key_3_axes_0, beta = encoder_layers_1_norm_self_att_bias_to_fp16, epsilon = var_38_to_fp16, gamma = encoder_layers_1_norm_self_att_weight_to_fp16, x = input_89_cast_fp16)[name = tensor<string, []>("key_3_cast_fp16")];
            tensor<bool, []> input_91_interleave_0 = const()[name = tensor<string, []>("input_91_interleave_0"), val = tensor<bool, []>(false)];
            tensor<fp16, [1, 73, 512]> input_91_cast_fp16 = concat(axis = var_64, interleave = input_91_interleave_0, values = (cache_5_cast_fp16, key_3_cast_fp16))[name = tensor<string, []>("input_91_cast_fp16")];
            tensor<int32, [3]> var_530_begin_0 = const()[name = tensor<string, []>("op_530_begin_0"), val = tensor<int32, [3]>([0, 3, 0])];
            tensor<int32, [3]> var_530_end_0 = const()[name = tensor<string, []>("op_530_end_0"), val = tensor<int32, [3]>([1, 70, 512])];
            tensor<bool, [3]> var_530_end_mask_0 = const()[name = tensor<string, []>("op_530_end_mask_0"), val = tensor<bool, [3]>([true, true, true])];
            tensor<fp16, [1, 67, 512]> var_530_cast_fp16 = slice_by_index(begin = var_530_begin_0, end = var_530_end_0, end_mask = var_530_end_mask_0, x = cache_5_cast_fp16)[name = tensor<string, []>("op_530_cast_fp16")];
            tensor<bool, []> var_536_interleave_0 = const()[name = tensor<string, []>("op_536_interleave_0"), val = tensor<bool, []>(false)];
            tensor<fp16, [1, 70, 512]> var_536_cast_fp16 = concat(axis = var_64, interleave = var_536_interleave_0, values = (var_530_cast_fp16, key_3_cast_fp16))[name = tensor<string, []>("op_536_cast_fp16")];
            tensor<fp16, [512, 512]> encoder_layers_1_self_attn_linear_q_weight_to_fp16 = const()[name = tensor<string, []>("encoder_layers_1_self_attn_linear_q_weight_to_fp16"), val = tensor<fp16, [512, 512]>(BLOBFILE(path = tensor<string, []>("@model_path/weights/weight.bin"), offset = tensor<uint64, []>(21173440)))];
            tensor<fp16, [1, 3, 512]> linear_12_cast_fp16 = linear(bias = linear_2_bias_0_to_fp16, weight = encoder_layers_1_self_attn_linear_q_weight_to_fp16, x = key_3_cast_fp16)[name = tensor<string, []>("linear_12_cast_fp16")];
            tensor<int32, [4]> var_540 = const()[name = tensor<string, []>("op_540"), val = tensor<int32, [4]>([1, -1, 8, 64])];
            tensor<fp16, [1, 3, 8, 64]> q_7_cast_fp16 = reshape(shape = var_540, x = linear_12_cast_fp16)[name = tensor<string, []>("q_7_cast_fp16")];
            tensor<fp16, [512, 512]> encoder_layers_1_self_attn_linear_k_weight_to_fp16 = const()[name = tensor<string, []>("encoder_layers_1_self_attn_linear_k_weight_to_fp16"), val = tensor<fp16, [512, 512]>(BLOBFILE(path = tensor<string, []>("@model_path/weights/weight.bin"), offset = tensor<uint64, []>(21697792)))];
            tensor<fp16, [1, 73, 512]> linear_13_cast_fp16 = linear(bias = linear_2_bias_0_to_fp16, weight = encoder_layers_1_self_attn_linear_k_weight_to_fp16, x = input_91_cast_fp16)[name = tensor<string, []>("linear_13_cast_fp16")];
            tensor<int32, [4]> var_544 = const()[name = tensor<string, []>("op_544"), val = tensor<int32, [4]>([1, -1, 8, 64])];
            tensor<fp16, [1, 73, 8, 64]> k_5_cast_fp16 = reshape(shape = var_544, x = linear_13_cast_fp16)[name = tensor<string, []>("k_5_cast_fp16")];
            tensor<fp16, [512, 512]> encoder_layers_1_self_attn_linear_v_weight_to_fp16 = const()[name = tensor<string, []>("encoder_layers_1_self_attn_linear_v_weight_to_fp16"), val = tensor<fp16, [512, 512]>(BLOBFILE(path = tensor<string, []>("@model_path/weights/weight.bin"), offset = tensor<uint64, []>(22222144)))];
            tensor<fp16, [1, 73, 512]> linear_14_cast_fp16 = linear(bias = linear_2_bias_0_to_fp16, weight = encoder_layers_1_self_attn_linear_v_weight_to_fp16, x = input_91_cast_fp16)[name = tensor<string, []>("linear_14_cast_fp16")];
            tensor<int32, [4]> var_548 = const()[name = tensor<string, []>("op_548"), val = tensor<int32, [4]>([1, -1, 8, 64])];
            tensor<fp16, [1, 73, 8, 64]> v_3_cast_fp16 = reshape(shape = var_548, x = linear_14_cast_fp16)[name = tensor<string, []>("v_3_cast_fp16")];
            tensor<int32, [4]> value_5_perm_0 = const()[name = tensor<string, []>("value_5_perm_0"), val = tensor<int32, [4]>([0, 2, 1, 3])];
            tensor<fp16, [8, 64]> encoder_layers_1_self_attn_pos_bias_u_to_fp16 = const()[name = tensor<string, []>("encoder_layers_1_self_attn_pos_bias_u_to_fp16"), val = tensor<fp16, [8, 64]>(BLOBFILE(path = tensor<string, []>("@model_path/weights/weight.bin"), offset = tensor<uint64, []>(22746496)))];
            tensor<fp16, [1, 3, 8, 64]> var_560_cast_fp16 = add(x = q_7_cast_fp16, y = encoder_layers_1_self_attn_pos_bias_u_to_fp16)[name = tensor<string, []>("op_560_cast_fp16")];
            tensor<fp16, [8, 64]> encoder_layers_1_self_attn_pos_bias_v_to_fp16 = const()[name = tensor<string, []>("encoder_layers_1_self_attn_pos_bias_v_to_fp16"), val = tensor<fp16, [8, 64]>(BLOBFILE(path = tensor<string, []>("@model_path/weights/weight.bin"), offset = tensor<uint64, []>(22747584)))];
            tensor<fp16, [1, 3, 8, 64]> var_562_cast_fp16 = add(x = q_7_cast_fp16, y = encoder_layers_1_self_attn_pos_bias_v_to_fp16)[name = tensor<string, []>("op_562_cast_fp16")];
            tensor<int32, [4]> q_with_bias_v_3_perm_0 = const()[name = tensor<string, []>("q_with_bias_v_3_perm_0"), val = tensor<int32, [4]>([0, 2, 1, 3])];
            tensor<bool, []> x_33_transpose_x_0 = const()[name = tensor<string, []>("x_33_transpose_x_0"), val = tensor<bool, []>(false)];
            tensor<bool, []> x_33_transpose_y_0 = const()[name = tensor<string, []>("x_33_transpose_y_0"), val = tensor<bool, []>(false)];
            tensor<fp16, [1, 8, 64, 145]> var_564_to_fp16 = const()[name = tensor<string, []>("op_564_to_fp16"), val = tensor<fp16, [1, 8, 64, 145]>(BLOBFILE(path = tensor<string, []>("@model_path/weights/weight.bin"), offset = tensor<uint64, []>(22748672)))];
            tensor<fp16, [1, 8, 3, 64]> q_with_bias_v_3_cast_fp16 = transpose(perm = q_with_bias_v_3_perm_0, x = var_562_cast_fp16)[name = tensor<string, []>("transpose_228")];
            tensor<fp16, [1, 8, 3, 145]> x_33_cast_fp16 = matmul(transpose_x = x_33_transpose_x_0, transpose_y = x_33_transpose_y_0, x = q_with_bias_v_3_cast_fp16, y = var_564_to_fp16)[name = tensor<string, []>("x_33_cast_fp16")];
            tensor<int32, [8]> x_35_pad_0 = const()[name = tensor<string, []>("x_35_pad_0"), val = tensor<int32, [8]>([0, 0, 0, 0, 0, 0, 1, 0])];
            tensor<string, []> x_35_mode_0 = const()[name = tensor<string, []>("x_35_mode_0"), val = tensor<string, []>("constant")];
            tensor<fp16, []> const_36_to_fp16 = const()[name = tensor<string, []>("const_36_to_fp16"), val = tensor<fp16, []>(0x0p+0)];
            tensor<fp16, [1, 8, 3, 146]> x_35_cast_fp16 = pad(constant_val = const_36_to_fp16, mode = x_35_mode_0, pad = x_35_pad_0, x = x_33_cast_fp16)[name = tensor<string, []>("x_35_cast_fp16")];
            tensor<int32, [4]> var_572 = const()[name = tensor<string, []>("op_572"), val = tensor<int32, [4]>([1, 8, -1, 3])];
            tensor<fp16, [1, 8, 146, 3]> x_37_cast_fp16 = reshape(shape = var_572, x = x_35_cast_fp16)[name = tensor<string, []>("x_37_cast_fp16")];
            tensor<int32, [4]> var_576_begin_0 = const()[name = tensor<string, []>("op_576_begin_0"), val = tensor<int32, [4]>([0, 0, 1, 0])];
            tensor<int32, [4]> var_576_end_0 = const()[name = tensor<string, []>("op_576_end_0"), val = tensor<int32, [4]>([1, 8, 146, 3])];
            tensor<bool, [4]> var_576_end_mask_0 = const()[name = tensor<string, []>("op_576_end_mask_0"), val = tensor<bool, [4]>([true, true, true, true])];
            tensor<fp16, [1, 8, 145, 3]> var_576_cast_fp16 = slice_by_index(begin = var_576_begin_0, end = var_576_end_0, end_mask = var_576_end_mask_0, x = x_37_cast_fp16)[name = tensor<string, []>("op_576_cast_fp16")];
            tensor<int32, [4]> var_577 = const()[name = tensor<string, []>("op_577"), val = tensor<int32, [4]>([1, 8, 3, 145])];
            tensor<fp16, [1, 8, 3, 145]> matrix_bd_5_cast_fp16 = reshape(shape = var_577, x = var_576_cast_fp16)[name = tensor<string, []>("matrix_bd_5_cast_fp16")];
            tensor<bool, []> matrix_ac_3_transpose_x_0 = const()[name = tensor<string, []>("matrix_ac_3_transpose_x_0"), val = tensor<bool, []>(false)];
            tensor<bool, []> matrix_ac_3_transpose_y_0 = const()[name = tensor<string, []>("matrix_ac_3_transpose_y_0"), val = tensor<bool, []>(false)];
            tensor<int32, [4]> transpose_53_perm_0 = const()[name = tensor<string, []>("transpose_53_perm_0"), val = tensor<int32, [4]>([0, 2, -3, -1])];
            tensor<int32, [4]> transpose_54_perm_0 = const()[name = tensor<string, []>("transpose_54_perm_0"), val = tensor<int32, [4]>([0, 2, -1, -3])];
            tensor<fp16, [1, 8, 64, 73]> transpose_54 = transpose(perm = transpose_54_perm_0, x = k_5_cast_fp16)[name = tensor<string, []>("transpose_226")];
            tensor<fp16, [1, 8, 3, 64]> transpose_53 = transpose(perm = transpose_53_perm_0, x = var_560_cast_fp16)[name = tensor<string, []>("transpose_227")];
            tensor<fp16, [1, 8, 3, 73]> matrix_ac_3_cast_fp16 = matmul(transpose_x = matrix_ac_3_transpose_x_0, transpose_y = matrix_ac_3_transpose_y_0, x = transpose_53, y = transpose_54)[name = tensor<string, []>("matrix_ac_3_cast_fp16")];
            tensor<int32, [4]> matrix_bd_7_begin_0 = const()[name = tensor<string, []>("matrix_bd_7_begin_0"), val = tensor<int32, [4]>([0, 0, 0, 0])];
            tensor<int32, [4]> matrix_bd_7_end_0 = const()[name = tensor<string, []>("matrix_bd_7_end_0"), val = tensor<int32, [4]>([1, 8, 3, 73])];
            tensor<bool, [4]> matrix_bd_7_end_mask_0 = const()[name = tensor<string, []>("matrix_bd_7_end_mask_0"), val = tensor<bool, [4]>([true, true, true, false])];
            tensor<fp16, [1, 8, 3, 73]> matrix_bd_7_cast_fp16 = slice_by_index(begin = matrix_bd_7_begin_0, end = matrix_bd_7_end_0, end_mask = matrix_bd_7_end_mask_0, x = matrix_bd_5_cast_fp16)[name = tensor<string, []>("matrix_bd_7_cast_fp16")];
            tensor<fp16, [1, 8, 3, 73]> var_586_cast_fp16 = add(x = matrix_ac_3_cast_fp16, y = matrix_bd_7_cast_fp16)[name = tensor<string, []>("op_586_cast_fp16")];
            tensor<fp16, []> _inversed_scores_5_y_0_to_fp16 = const()[name = tensor<string, []>("_inversed_scores_5_y_0_to_fp16"), val = tensor<fp16, []>(0x1p-3)];
            tensor<fp16, [1, 8, 3, 73]> _inversed_scores_5_cast_fp16 = mul(x = var_586_cast_fp16, y = _inversed_scores_5_y_0_to_fp16)[name = tensor<string, []>("_inversed_scores_5_cast_fp16")];
            tensor<fp16, [1, 8, 3, 73]> scores_7_cast_fp16 = select(a = var_41_to_fp16, b = _inversed_scores_5_cast_fp16, cond = mask_3)[name = tensor<string, []>("scores_7_cast_fp16")];
            tensor<fp16, [1, 8, 3, 73]> var_592_cast_fp16 = softmax(axis = var_62, x = scores_7_cast_fp16)[name = tensor<string, []>("op_592_cast_fp16")];
            tensor<fp16, [1, 8, 3, 73]> input_93_cast_fp16 = select(a = var_40_to_fp16, b = var_592_cast_fp16, cond = mask_3)[name = tensor<string, []>("input_93_cast_fp16")];
            tensor<bool, []> x_39_transpose_x_0 = const()[name = tensor<string, []>("x_39_transpose_x_0"), val = tensor<bool, []>(false)];
            tensor<bool, []> x_39_transpose_y_0 = const()[name = tensor<string, []>("x_39_transpose_y_0"), val = tensor<bool, []>(false)];
            tensor<fp16, [1, 8, 73, 64]> value_5_cast_fp16 = transpose(perm = value_5_perm_0, x = v_3_cast_fp16)[name = tensor<string, []>("transpose_229")];
            tensor<fp16, [1, 8, 3, 64]> x_39_cast_fp16 = matmul(transpose_x = x_39_transpose_x_0, transpose_y = x_39_transpose_y_0, x = input_93_cast_fp16, y = value_5_cast_fp16)[name = tensor<string, []>("x_39_cast_fp16")];
            tensor<int32, [4]> var_596_perm_0 = const()[name = tensor<string, []>("op_596_perm_0"), val = tensor<int32, [4]>([0, 2, 1, 3])];
            tensor<int32, [3]> var_597 = const()[name = tensor<string, []>("op_597"), val = tensor<int32, [3]>([1, -1, 512])];
            tensor<fp16, [1, 3, 8, 64]> var_596_cast_fp16 = transpose(perm = var_596_perm_0, x = x_39_cast_fp16)[name = tensor<string, []>("transpose_225")];
            tensor<fp16, [1, 3, 512]> input_95_cast_fp16 = reshape(shape = var_597, x = var_596_cast_fp16)[name = tensor<string, []>("input_95_cast_fp16")];
            tensor<fp16, [512, 512]> encoder_layers_1_self_attn_linear_out_weight_to_fp16 = const()[name = tensor<string, []>("encoder_layers_1_self_attn_linear_out_weight_to_fp16"), val = tensor<fp16, [512, 512]>(BLOBFILE(path = tensor<string, []>("@model_path/weights/weight.bin"), offset = tensor<uint64, []>(22897216)))];
            tensor<fp16, [1, 3, 512]> linear_16_cast_fp16 = linear(bias = linear_2_bias_0_to_fp16, weight = encoder_layers_1_self_attn_linear_out_weight_to_fp16, x = input_95_cast_fp16)[name = tensor<string, []>("linear_16_cast_fp16")];
            tensor<fp16, [1, 3, 512]> input_99_cast_fp16 = add(x = input_89_cast_fp16, y = linear_16_cast_fp16)[name = tensor<string, []>("input_99_cast_fp16")];
            tensor<int32, [1]> x_43_axes_0 = const()[name = tensor<string, []>("x_43_axes_0"), val = tensor<int32, [1]>([-1])];
            tensor<fp16, [512]> encoder_layers_1_norm_conv_weight_to_fp16 = const()[name = tensor<string, []>("encoder_layers_1_norm_conv_weight_to_fp16"), val = tensor<fp16, [512]>(BLOBFILE(path = tensor<string, []>("@model_path/weights/weight.bin"), offset = tensor<uint64, []>(23421568)))];
            tensor<fp16, [512]> encoder_layers_1_norm_conv_bias_to_fp16 = const()[name = tensor<string, []>("encoder_layers_1_norm_conv_bias_to_fp16"), val = tensor<fp16, [512]>(BLOBFILE(path = tensor<string, []>("@model_path/weights/weight.bin"), offset = tensor<uint64, []>(23422656)))];
            tensor<fp16, [1, 3, 512]> x_43_cast_fp16 = layer_norm(axes = x_43_axes_0, beta = encoder_layers_1_norm_conv_bias_to_fp16, epsilon = var_38_to_fp16, gamma = encoder_layers_1_norm_conv_weight_to_fp16, x = input_99_cast_fp16)[name = tensor<string, []>("x_43_cast_fp16")];
            tensor<int32, [3]> input_101_perm_0 = const()[name = tensor<string, []>("input_101_perm_0"), val = tensor<int32, [3]>([0, 2, 1])];
            tensor<string, []> input_103_pad_type_0 = const()[name = tensor<string, []>("input_103_pad_type_0"), val = tensor<string, []>("valid")];
            tensor<int32, [1]> input_103_strides_0 = const()[name = tensor<string, []>("input_103_strides_0"), val = tensor<int32, [1]>([1])];
            tensor<int32, [2]> input_103_pad_0 = const()[name = tensor<string, []>("input_103_pad_0"), val = tensor<int32, [2]>([0, 0])];
            tensor<int32, [1]> input_103_dilations_0 = const()[name = tensor<string, []>("input_103_dilations_0"), val = tensor<int32, [1]>([1])];
            tensor<int32, []> input_103_groups_0 = const()[name = tensor<string, []>("input_103_groups_0"), val = tensor<int32, []>(1)];
            tensor<fp16, [1024, 512, 1]> encoder_layers_1_conv_pointwise_conv1_weight_to_fp16 = const()[name = tensor<string, []>("encoder_layers_1_conv_pointwise_conv1_weight_to_fp16"), val = tensor<fp16, [1024, 512, 1]>(BLOBFILE(path = tensor<string, []>("@model_path/weights/weight.bin"), offset = tensor<uint64, []>(23423744)))];
            tensor<fp16, [1, 512, 3]> input_101_cast_fp16 = transpose(perm = input_101_perm_0, x = x_43_cast_fp16)[name = tensor<string, []>("transpose_224")];
            tensor<fp16, [1, 1024, 3]> input_103_cast_fp16 = conv(dilations = input_103_dilations_0, groups = input_103_groups_0, pad = input_103_pad_0, pad_type = input_103_pad_type_0, strides = input_103_strides_0, weight = encoder_layers_1_conv_pointwise_conv1_weight_to_fp16, x = input_101_cast_fp16)[name = tensor<string, []>("input_103_cast_fp16")];
            tensor<int32, []> x_45_split_num_splits_0 = const()[name = tensor<string, []>("x_45_split_num_splits_0"), val = tensor<int32, []>(2)];
            tensor<int32, []> x_45_split_axis_0 = const()[name = tensor<string, []>("x_45_split_axis_0"), val = tensor<int32, []>(1)];
            tensor<fp16, [1, 512, 3]> x_45_split_cast_fp16_0, tensor<fp16, [1, 512, 3]> x_45_split_cast_fp16_1 = split(axis = x_45_split_axis_0, num_splits = x_45_split_num_splits_0, x = input_103_cast_fp16)[name = tensor<string, []>("x_45_split_cast_fp16")];
            tensor<fp16, [1, 512, 3]> x_45_split_1_sigmoid_cast_fp16 = sigmoid(x = x_45_split_cast_fp16_1)[name = tensor<string, []>("x_45_split_1_sigmoid_cast_fp16")];
            tensor<fp16, [1, 512, 3]> x_45_cast_fp16 = mul(x = x_45_split_cast_fp16_0, y = x_45_split_1_sigmoid_cast_fp16)[name = tensor<string, []>("x_45_cast_fp16")];
            tensor<fp16, [1, 512, 3]> input_105_cast_fp16 = select(a = var_40_to_fp16, b = x_45_cast_fp16, cond = var_418)[name = tensor<string, []>("input_105_cast_fp16")];
            tensor<bool, []> new_x_7_interleave_0 = const()[name = tensor<string, []>("new_x_7_interleave_0"), val = tensor<bool, []>(false)];
            tensor<fp16, [1, 512, 11]> new_x_7_cast_fp16 = concat(axis = var_62, interleave = new_x_7_interleave_0, values = (cache_7_cast_fp16, input_105_cast_fp16))[name = tensor<string, []>("new_x_7_cast_fp16")];
            tensor<int32, [3]> var_635_begin_0 = const()[name = tensor<string, []>("op_635_begin_0"), val = tensor<int32, [3]>([0, 0, 3])];
            tensor<int32, [3]> var_635_end_0 = const()[name = tensor<string, []>("op_635_end_0"), val = tensor<int32, [3]>([1, 512, 11])];
            tensor<bool, [3]> var_635_end_mask_0 = const()[name = tensor<string, []>("op_635_end_mask_0"), val = tensor<bool, [3]>([true, true, true])];
            tensor<fp16, [1, 512, 8]> var_635_cast_fp16 = slice_by_index(begin = var_635_begin_0, end = var_635_end_0, end_mask = var_635_end_mask_0, x = new_x_7_cast_fp16)[name = tensor<string, []>("op_635_cast_fp16")];
            tensor<string, []> x_47_pad_type_0 = const()[name = tensor<string, []>("x_47_pad_type_0"), val = tensor<string, []>("valid")];
            tensor<int32, []> x_47_groups_0 = const()[name = tensor<string, []>("x_47_groups_0"), val = tensor<int32, []>(512)];
            tensor<int32, [1]> x_47_strides_0 = const()[name = tensor<string, []>("x_47_strides_0"), val = tensor<int32, [1]>([1])];
            tensor<int32, [2]> x_47_pad_0 = const()[name = tensor<string, []>("x_47_pad_0"), val = tensor<int32, [2]>([0, 0])];
            tensor<int32, [1]> x_47_dilations_0 = const()[name = tensor<string, []>("x_47_dilations_0"), val = tensor<int32, [1]>([1])];
            tensor<fp16, [512, 1, 9]> encoder_layers_1_conv_depthwise_conv_weight_to_fp16 = const()[name = tensor<string, []>("encoder_layers_1_conv_depthwise_conv_weight_to_fp16"), val = tensor<fp16, [512, 1, 9]>(BLOBFILE(path = tensor<string, []>("@model_path/weights/weight.bin"), offset = tensor<uint64, []>(24472384)))];
            tensor<fp16, [1, 512, 3]> x_47_cast_fp16 = conv(dilations = x_47_dilations_0, groups = x_47_groups_0, pad = x_47_pad_0, pad_type = x_47_pad_type_0, strides = x_47_strides_0, weight = encoder_layers_1_conv_depthwise_conv_weight_to_fp16, x = new_x_7_cast_fp16)[name = tensor<string, []>("x_47_cast_fp16")];
            tensor<int32, [3]> input_107_perm_0 = const()[name = tensor<string, []>("input_107_perm_0"), val = tensor<int32, [3]>([0, 2, 1])];
            tensor<int32, [1]> x_49_axes_0 = const()[name = tensor<string, []>("x_49_axes_0"), val = tensor<int32, [1]>([-1])];
            tensor<fp16, [512]> encoder_layers_1_conv_batch_norm_weight_to_fp16 = const()[name = tensor<string, []>("encoder_layers_1_conv_batch_norm_weight_to_fp16"), val = tensor<fp16, [512]>(BLOBFILE(path = tensor<string, []>("@model_path/weights/weight.bin"), offset = tensor<uint64, []>(24481664)))];
            tensor<fp16, [512]> encoder_layers_1_conv_batch_norm_bias_to_fp16 = const()[name = tensor<string, []>("encoder_layers_1_conv_batch_norm_bias_to_fp16"), val = tensor<fp16, [512]>(BLOBFILE(path = tensor<string, []>("@model_path/weights/weight.bin"), offset = tensor<uint64, []>(24482752)))];
            tensor<fp16, [1, 3, 512]> input_107_cast_fp16 = transpose(perm = input_107_perm_0, x = x_47_cast_fp16)[name = tensor<string, []>("transpose_223")];
            tensor<fp16, [1, 3, 512]> x_49_cast_fp16 = layer_norm(axes = x_49_axes_0, beta = encoder_layers_1_conv_batch_norm_bias_to_fp16, epsilon = var_38_to_fp16, gamma = encoder_layers_1_conv_batch_norm_weight_to_fp16, x = input_107_cast_fp16)[name = tensor<string, []>("x_49_cast_fp16")];
            tensor<int32, [3]> input_109_perm_0 = const()[name = tensor<string, []>("input_109_perm_0"), val = tensor<int32, [3]>([0, 2, 1])];
            tensor<fp16, [1, 512, 3]> input_109_cast_fp16 = transpose(perm = input_109_perm_0, x = x_49_cast_fp16)[name = tensor<string, []>("transpose_222")];
            tensor<fp16, [1, 512, 3]> input_111_cast_fp16 = silu(x = input_109_cast_fp16)[name = tensor<string, []>("input_111_cast_fp16")];
            tensor<string, []> x_51_pad_type_0 = const()[name = tensor<string, []>("x_51_pad_type_0"), val = tensor<string, []>("valid")];
            tensor<int32, [1]> x_51_strides_0 = const()[name = tensor<string, []>("x_51_strides_0"), val = tensor<int32, [1]>([1])];
            tensor<int32, [2]> x_51_pad_0 = const()[name = tensor<string, []>("x_51_pad_0"), val = tensor<int32, [2]>([0, 0])];
            tensor<int32, [1]> x_51_dilations_0 = const()[name = tensor<string, []>("x_51_dilations_0"), val = tensor<int32, [1]>([1])];
            tensor<int32, []> x_51_groups_0 = const()[name = tensor<string, []>("x_51_groups_0"), val = tensor<int32, []>(1)];
            tensor<fp16, [512, 512, 1]> encoder_layers_1_conv_pointwise_conv2_weight_to_fp16 = const()[name = tensor<string, []>("encoder_layers_1_conv_pointwise_conv2_weight_to_fp16"), val = tensor<fp16, [512, 512, 1]>(BLOBFILE(path = tensor<string, []>("@model_path/weights/weight.bin"), offset = tensor<uint64, []>(24483840)))];
            tensor<fp16, [1, 512, 3]> x_51_cast_fp16 = conv(dilations = x_51_dilations_0, groups = x_51_groups_0, pad = x_51_pad_0, pad_type = x_51_pad_type_0, strides = x_51_strides_0, weight = encoder_layers_1_conv_pointwise_conv2_weight_to_fp16, x = input_111_cast_fp16)[name = tensor<string, []>("x_51_cast_fp16")];
            tensor<int32, [3]> input_113_perm_0 = const()[name = tensor<string, []>("input_113_perm_0"), val = tensor<int32, [3]>([0, 2, 1])];
            tensor<fp16, [1, 3, 512]> input_113_cast_fp16 = transpose(perm = input_113_perm_0, x = x_51_cast_fp16)[name = tensor<string, []>("transpose_221")];
            tensor<fp16, [1, 3, 512]> input_115_cast_fp16 = add(x = input_99_cast_fp16, y = input_113_cast_fp16)[name = tensor<string, []>("input_115_cast_fp16")];
            tensor<int32, [1]> input_117_axes_0 = const()[name = tensor<string, []>("input_117_axes_0"), val = tensor<int32, [1]>([-1])];
            tensor<fp16, [512]> encoder_layers_1_norm_feed_forward2_weight_to_fp16 = const()[name = tensor<string, []>("encoder_layers_1_norm_feed_forward2_weight_to_fp16"), val = tensor<fp16, [512]>(BLOBFILE(path = tensor<string, []>("@model_path/weights/weight.bin"), offset = tensor<uint64, []>(25008192)))];
            tensor<fp16, [512]> encoder_layers_1_norm_feed_forward2_bias_to_fp16 = const()[name = tensor<string, []>("encoder_layers_1_norm_feed_forward2_bias_to_fp16"), val = tensor<fp16, [512]>(BLOBFILE(path = tensor<string, []>("@model_path/weights/weight.bin"), offset = tensor<uint64, []>(25009280)))];
            tensor<fp16, [1, 3, 512]> input_117_cast_fp16 = layer_norm(axes = input_117_axes_0, beta = encoder_layers_1_norm_feed_forward2_bias_to_fp16, epsilon = var_38_to_fp16, gamma = encoder_layers_1_norm_feed_forward2_weight_to_fp16, x = input_115_cast_fp16)[name = tensor<string, []>("input_117_cast_fp16")];
            tensor<fp16, [2048, 512]> encoder_layers_1_feed_forward2_linear1_weight_to_fp16 = const()[name = tensor<string, []>("encoder_layers_1_feed_forward2_linear1_weight_to_fp16"), val = tensor<fp16, [2048, 512]>(BLOBFILE(path = tensor<string, []>("@model_path/weights/weight.bin"), offset = tensor<uint64, []>(25010368)))];
            tensor<fp16, [1, 3, 2048]> linear_17_cast_fp16 = linear(bias = linear_1_bias_0_to_fp16, weight = encoder_layers_1_feed_forward2_linear1_weight_to_fp16, x = input_117_cast_fp16)[name = tensor<string, []>("linear_17_cast_fp16")];
            tensor<fp16, [1, 3, 2048]> input_121_cast_fp16 = silu(x = linear_17_cast_fp16)[name = tensor<string, []>("input_121_cast_fp16")];
            tensor<fp16, [512, 2048]> encoder_layers_1_feed_forward2_linear2_weight_to_fp16 = const()[name = tensor<string, []>("encoder_layers_1_feed_forward2_linear2_weight_to_fp16"), val = tensor<fp16, [512, 2048]>(BLOBFILE(path = tensor<string, []>("@model_path/weights/weight.bin"), offset = tensor<uint64, []>(27107584)))];
            tensor<fp16, [1, 3, 512]> linear_18_cast_fp16 = linear(bias = linear_2_bias_0_to_fp16, weight = encoder_layers_1_feed_forward2_linear2_weight_to_fp16, x = input_121_cast_fp16)[name = tensor<string, []>("linear_18_cast_fp16")];
            tensor<fp16, []> var_676_to_fp16 = const()[name = tensor<string, []>("op_676_to_fp16"), val = tensor<fp16, []>(0x1p-1)];
            tensor<fp16, [1, 3, 512]> var_677_cast_fp16 = mul(x = linear_18_cast_fp16, y = var_676_to_fp16)[name = tensor<string, []>("op_677_cast_fp16")];
            tensor<fp16, [1, 3, 512]> input_127_cast_fp16 = add(x = input_115_cast_fp16, y = var_677_cast_fp16)[name = tensor<string, []>("input_127_cast_fp16")];
            tensor<int32, [1]> input_129_axes_0 = const()[name = tensor<string, []>("input_129_axes_0"), val = tensor<int32, [1]>([-1])];
            tensor<fp16, [512]> encoder_layers_1_norm_out_weight_to_fp16 = const()[name = tensor<string, []>("encoder_layers_1_norm_out_weight_to_fp16"), val = tensor<fp16, [512]>(BLOBFILE(path = tensor<string, []>("@model_path/weights/weight.bin"), offset = tensor<uint64, []>(29204800)))];
            tensor<fp16, [512]> encoder_layers_1_norm_out_bias_to_fp16 = const()[name = tensor<string, []>("encoder_layers_1_norm_out_bias_to_fp16"), val = tensor<fp16, [512]>(BLOBFILE(path = tensor<string, []>("@model_path/weights/weight.bin"), offset = tensor<uint64, []>(29205888)))];
            tensor<fp16, [1, 3, 512]> input_129_cast_fp16 = layer_norm(axes = input_129_axes_0, beta = encoder_layers_1_norm_out_bias_to_fp16, epsilon = var_38_to_fp16, gamma = encoder_layers_1_norm_out_weight_to_fp16, x = input_127_cast_fp16)[name = tensor<string, []>("input_129_cast_fp16")];
            tensor<int32, [4]> cache_9_begin_0 = const()[name = tensor<string, []>("cache_9_begin_0"), val = tensor<int32, [4]>([2, 0, 0, 0])];
            tensor<int32, [4]> cache_9_end_0 = const()[name = tensor<string, []>("cache_9_end_0"), val = tensor<int32, [4]>([3, 1, 70, 512])];
            tensor<bool, [4]> cache_9_end_mask_0 = const()[name = tensor<string, []>("cache_9_end_mask_0"), val = tensor<bool, [4]>([false, true, true, true])];
            tensor<bool, [4]> cache_9_squeeze_mask_0 = const()[name = tensor<string, []>("cache_9_squeeze_mask_0"), val = tensor<bool, [4]>([true, false, false, false])];
            tensor<fp16, [1, 70, 512]> cache_9_cast_fp16 = slice_by_index(begin = cache_9_begin_0, end = cache_9_end_0, end_mask = cache_9_end_mask_0, squeeze_mask = cache_9_squeeze_mask_0, x = cache_last_channel_to_fp16)[name = tensor<string, []>("cache_9_cast_fp16")];
            tensor<int32, [4]> cache_11_begin_0 = const()[name = tensor<string, []>("cache_11_begin_0"), val = tensor<int32, [4]>([2, 0, 0, 0])];
            tensor<int32, [4]> cache_11_end_0 = const()[name = tensor<string, []>("cache_11_end_0"), val = tensor<int32, [4]>([3, 1, 512, 8])];
            tensor<bool, [4]> cache_11_end_mask_0 = const()[name = tensor<string, []>("cache_11_end_mask_0"), val = tensor<bool, [4]>([false, true, true, true])];
            tensor<bool, [4]> cache_11_squeeze_mask_0 = const()[name = tensor<string, []>("cache_11_squeeze_mask_0"), val = tensor<bool, [4]>([true, false, false, false])];
            tensor<fp16, [1, 512, 8]> cache_11_cast_fp16 = slice_by_index(begin = cache_11_begin_0, end = cache_11_end_0, end_mask = cache_11_end_mask_0, squeeze_mask = cache_11_squeeze_mask_0, x = cache_last_time_to_fp16)[name = tensor<string, []>("cache_11_cast_fp16")];
            tensor<int32, [1]> input_131_axes_0 = const()[name = tensor<string, []>("input_131_axes_0"), val = tensor<int32, [1]>([-1])];
            tensor<fp16, [512]> encoder_layers_2_norm_feed_forward1_weight_to_fp16 = const()[name = tensor<string, []>("encoder_layers_2_norm_feed_forward1_weight_to_fp16"), val = tensor<fp16, [512]>(BLOBFILE(path = tensor<string, []>("@model_path/weights/weight.bin"), offset = tensor<uint64, []>(29206976)))];
            tensor<fp16, [512]> encoder_layers_2_norm_feed_forward1_bias_to_fp16 = const()[name = tensor<string, []>("encoder_layers_2_norm_feed_forward1_bias_to_fp16"), val = tensor<fp16, [512]>(BLOBFILE(path = tensor<string, []>("@model_path/weights/weight.bin"), offset = tensor<uint64, []>(29208064)))];
            tensor<fp16, [1, 3, 512]> input_131_cast_fp16 = layer_norm(axes = input_131_axes_0, beta = encoder_layers_2_norm_feed_forward1_bias_to_fp16, epsilon = var_38_to_fp16, gamma = encoder_layers_2_norm_feed_forward1_weight_to_fp16, x = input_129_cast_fp16)[name = tensor<string, []>("input_131_cast_fp16")];
            tensor<fp16, [2048, 512]> encoder_layers_2_feed_forward1_linear1_weight_to_fp16 = const()[name = tensor<string, []>("encoder_layers_2_feed_forward1_linear1_weight_to_fp16"), val = tensor<fp16, [2048, 512]>(BLOBFILE(path = tensor<string, []>("@model_path/weights/weight.bin"), offset = tensor<uint64, []>(29209152)))];
            tensor<fp16, [1, 3, 2048]> linear_19_cast_fp16 = linear(bias = linear_1_bias_0_to_fp16, weight = encoder_layers_2_feed_forward1_linear1_weight_to_fp16, x = input_131_cast_fp16)[name = tensor<string, []>("linear_19_cast_fp16")];
            tensor<fp16, [1, 3, 2048]> input_135_cast_fp16 = silu(x = linear_19_cast_fp16)[name = tensor<string, []>("input_135_cast_fp16")];
            tensor<fp16, [512, 2048]> encoder_layers_2_feed_forward1_linear2_weight_to_fp16 = const()[name = tensor<string, []>("encoder_layers_2_feed_forward1_linear2_weight_to_fp16"), val = tensor<fp16, [512, 2048]>(BLOBFILE(path = tensor<string, []>("@model_path/weights/weight.bin"), offset = tensor<uint64, []>(31306368)))];
            tensor<fp16, [1, 3, 512]> linear_20_cast_fp16 = linear(bias = linear_2_bias_0_to_fp16, weight = encoder_layers_2_feed_forward1_linear2_weight_to_fp16, x = input_135_cast_fp16)[name = tensor<string, []>("linear_20_cast_fp16")];
            tensor<fp16, []> var_711_to_fp16 = const()[name = tensor<string, []>("op_711_to_fp16"), val = tensor<fp16, []>(0x1p-1)];
            tensor<fp16, [1, 3, 512]> var_712_cast_fp16 = mul(x = linear_20_cast_fp16, y = var_711_to_fp16)[name = tensor<string, []>("op_712_cast_fp16")];
            tensor<fp16, [1, 3, 512]> input_141_cast_fp16 = add(x = input_129_cast_fp16, y = var_712_cast_fp16)[name = tensor<string, []>("input_141_cast_fp16")];
            tensor<int32, [1]> key_5_axes_0 = const()[name = tensor<string, []>("key_5_axes_0"), val = tensor<int32, [1]>([-1])];
            tensor<fp16, [512]> encoder_layers_2_norm_self_att_weight_to_fp16 = const()[name = tensor<string, []>("encoder_layers_2_norm_self_att_weight_to_fp16"), val = tensor<fp16, [512]>(BLOBFILE(path = tensor<string, []>("@model_path/weights/weight.bin"), offset = tensor<uint64, []>(33403584)))];
            tensor<fp16, [512]> encoder_layers_2_norm_self_att_bias_to_fp16 = const()[name = tensor<string, []>("encoder_layers_2_norm_self_att_bias_to_fp16"), val = tensor<fp16, [512]>(BLOBFILE(path = tensor<string, []>("@model_path/weights/weight.bin"), offset = tensor<uint64, []>(33404672)))];
            tensor<fp16, [1, 3, 512]> key_5_cast_fp16 = layer_norm(axes = key_5_axes_0, beta = encoder_layers_2_norm_self_att_bias_to_fp16, epsilon = var_38_to_fp16, gamma = encoder_layers_2_norm_self_att_weight_to_fp16, x = input_141_cast_fp16)[name = tensor<string, []>("key_5_cast_fp16")];
            tensor<bool, []> input_143_interleave_0 = const()[name = tensor<string, []>("input_143_interleave_0"), val = tensor<bool, []>(false)];
            tensor<fp16, [1, 73, 512]> input_143_cast_fp16 = concat(axis = var_64, interleave = input_143_interleave_0, values = (cache_9_cast_fp16, key_5_cast_fp16))[name = tensor<string, []>("input_143_cast_fp16")];
            tensor<int32, [3]> var_734_begin_0 = const()[name = tensor<string, []>("op_734_begin_0"), val = tensor<int32, [3]>([0, 3, 0])];
            tensor<int32, [3]> var_734_end_0 = const()[name = tensor<string, []>("op_734_end_0"), val = tensor<int32, [3]>([1, 70, 512])];
            tensor<bool, [3]> var_734_end_mask_0 = const()[name = tensor<string, []>("op_734_end_mask_0"), val = tensor<bool, [3]>([true, true, true])];
            tensor<fp16, [1, 67, 512]> var_734_cast_fp16 = slice_by_index(begin = var_734_begin_0, end = var_734_end_0, end_mask = var_734_end_mask_0, x = cache_9_cast_fp16)[name = tensor<string, []>("op_734_cast_fp16")];
            tensor<bool, []> var_740_interleave_0 = const()[name = tensor<string, []>("op_740_interleave_0"), val = tensor<bool, []>(false)];
            tensor<fp16, [1, 70, 512]> var_740_cast_fp16 = concat(axis = var_64, interleave = var_740_interleave_0, values = (var_734_cast_fp16, key_5_cast_fp16))[name = tensor<string, []>("op_740_cast_fp16")];
            tensor<fp16, [512, 512]> encoder_layers_2_self_attn_linear_q_weight_to_fp16 = const()[name = tensor<string, []>("encoder_layers_2_self_attn_linear_q_weight_to_fp16"), val = tensor<fp16, [512, 512]>(BLOBFILE(path = tensor<string, []>("@model_path/weights/weight.bin"), offset = tensor<uint64, []>(33405760)))];
            tensor<fp16, [1, 3, 512]> linear_21_cast_fp16 = linear(bias = linear_2_bias_0_to_fp16, weight = encoder_layers_2_self_attn_linear_q_weight_to_fp16, x = key_5_cast_fp16)[name = tensor<string, []>("linear_21_cast_fp16")];
            tensor<int32, [4]> var_744 = const()[name = tensor<string, []>("op_744"), val = tensor<int32, [4]>([1, -1, 8, 64])];
            tensor<fp16, [1, 3, 8, 64]> q_13_cast_fp16 = reshape(shape = var_744, x = linear_21_cast_fp16)[name = tensor<string, []>("q_13_cast_fp16")];
            tensor<fp16, [512, 512]> encoder_layers_2_self_attn_linear_k_weight_to_fp16 = const()[name = tensor<string, []>("encoder_layers_2_self_attn_linear_k_weight_to_fp16"), val = tensor<fp16, [512, 512]>(BLOBFILE(path = tensor<string, []>("@model_path/weights/weight.bin"), offset = tensor<uint64, []>(33930112)))];
            tensor<fp16, [1, 73, 512]> linear_22_cast_fp16 = linear(bias = linear_2_bias_0_to_fp16, weight = encoder_layers_2_self_attn_linear_k_weight_to_fp16, x = input_143_cast_fp16)[name = tensor<string, []>("linear_22_cast_fp16")];
            tensor<int32, [4]> var_748 = const()[name = tensor<string, []>("op_748"), val = tensor<int32, [4]>([1, -1, 8, 64])];
            tensor<fp16, [1, 73, 8, 64]> k_9_cast_fp16 = reshape(shape = var_748, x = linear_22_cast_fp16)[name = tensor<string, []>("k_9_cast_fp16")];
            tensor<fp16, [512, 512]> encoder_layers_2_self_attn_linear_v_weight_to_fp16 = const()[name = tensor<string, []>("encoder_layers_2_self_attn_linear_v_weight_to_fp16"), val = tensor<fp16, [512, 512]>(BLOBFILE(path = tensor<string, []>("@model_path/weights/weight.bin"), offset = tensor<uint64, []>(34454464)))];
            tensor<fp16, [1, 73, 512]> linear_23_cast_fp16 = linear(bias = linear_2_bias_0_to_fp16, weight = encoder_layers_2_self_attn_linear_v_weight_to_fp16, x = input_143_cast_fp16)[name = tensor<string, []>("linear_23_cast_fp16")];
            tensor<int32, [4]> var_752 = const()[name = tensor<string, []>("op_752"), val = tensor<int32, [4]>([1, -1, 8, 64])];
            tensor<fp16, [1, 73, 8, 64]> v_5_cast_fp16 = reshape(shape = var_752, x = linear_23_cast_fp16)[name = tensor<string, []>("v_5_cast_fp16")];
            tensor<int32, [4]> value_7_perm_0 = const()[name = tensor<string, []>("value_7_perm_0"), val = tensor<int32, [4]>([0, 2, 1, 3])];
            tensor<fp16, [8, 64]> encoder_layers_2_self_attn_pos_bias_u_to_fp16 = const()[name = tensor<string, []>("encoder_layers_2_self_attn_pos_bias_u_to_fp16"), val = tensor<fp16, [8, 64]>(BLOBFILE(path = tensor<string, []>("@model_path/weights/weight.bin"), offset = tensor<uint64, []>(34978816)))];
            tensor<fp16, [1, 3, 8, 64]> var_764_cast_fp16 = add(x = q_13_cast_fp16, y = encoder_layers_2_self_attn_pos_bias_u_to_fp16)[name = tensor<string, []>("op_764_cast_fp16")];
            tensor<fp16, [8, 64]> encoder_layers_2_self_attn_pos_bias_v_to_fp16 = const()[name = tensor<string, []>("encoder_layers_2_self_attn_pos_bias_v_to_fp16"), val = tensor<fp16, [8, 64]>(BLOBFILE(path = tensor<string, []>("@model_path/weights/weight.bin"), offset = tensor<uint64, []>(34979904)))];
            tensor<fp16, [1, 3, 8, 64]> var_766_cast_fp16 = add(x = q_13_cast_fp16, y = encoder_layers_2_self_attn_pos_bias_v_to_fp16)[name = tensor<string, []>("op_766_cast_fp16")];
            tensor<int32, [4]> q_with_bias_v_5_perm_0 = const()[name = tensor<string, []>("q_with_bias_v_5_perm_0"), val = tensor<int32, [4]>([0, 2, 1, 3])];
            tensor<bool, []> x_59_transpose_x_0 = const()[name = tensor<string, []>("x_59_transpose_x_0"), val = tensor<bool, []>(false)];
            tensor<bool, []> x_59_transpose_y_0 = const()[name = tensor<string, []>("x_59_transpose_y_0"), val = tensor<bool, []>(false)];
            tensor<fp16, [1, 8, 64, 145]> var_768_to_fp16 = const()[name = tensor<string, []>("op_768_to_fp16"), val = tensor<fp16, [1, 8, 64, 145]>(BLOBFILE(path = tensor<string, []>("@model_path/weights/weight.bin"), offset = tensor<uint64, []>(34980992)))];
            tensor<fp16, [1, 8, 3, 64]> q_with_bias_v_5_cast_fp16 = transpose(perm = q_with_bias_v_5_perm_0, x = var_766_cast_fp16)[name = tensor<string, []>("transpose_219")];
            tensor<fp16, [1, 8, 3, 145]> x_59_cast_fp16 = matmul(transpose_x = x_59_transpose_x_0, transpose_y = x_59_transpose_y_0, x = q_with_bias_v_5_cast_fp16, y = var_768_to_fp16)[name = tensor<string, []>("x_59_cast_fp16")];
            tensor<int32, [8]> x_61_pad_0 = const()[name = tensor<string, []>("x_61_pad_0"), val = tensor<int32, [8]>([0, 0, 0, 0, 0, 0, 1, 0])];
            tensor<string, []> x_61_mode_0 = const()[name = tensor<string, []>("x_61_mode_0"), val = tensor<string, []>("constant")];
            tensor<fp16, []> const_49_to_fp16 = const()[name = tensor<string, []>("const_49_to_fp16"), val = tensor<fp16, []>(0x0p+0)];
            tensor<fp16, [1, 8, 3, 146]> x_61_cast_fp16 = pad(constant_val = const_49_to_fp16, mode = x_61_mode_0, pad = x_61_pad_0, x = x_59_cast_fp16)[name = tensor<string, []>("x_61_cast_fp16")];
            tensor<int32, [4]> var_776 = const()[name = tensor<string, []>("op_776"), val = tensor<int32, [4]>([1, 8, -1, 3])];
            tensor<fp16, [1, 8, 146, 3]> x_63_cast_fp16 = reshape(shape = var_776, x = x_61_cast_fp16)[name = tensor<string, []>("x_63_cast_fp16")];
            tensor<int32, [4]> var_780_begin_0 = const()[name = tensor<string, []>("op_780_begin_0"), val = tensor<int32, [4]>([0, 0, 1, 0])];
            tensor<int32, [4]> var_780_end_0 = const()[name = tensor<string, []>("op_780_end_0"), val = tensor<int32, [4]>([1, 8, 146, 3])];
            tensor<bool, [4]> var_780_end_mask_0 = const()[name = tensor<string, []>("op_780_end_mask_0"), val = tensor<bool, [4]>([true, true, true, true])];
            tensor<fp16, [1, 8, 145, 3]> var_780_cast_fp16 = slice_by_index(begin = var_780_begin_0, end = var_780_end_0, end_mask = var_780_end_mask_0, x = x_63_cast_fp16)[name = tensor<string, []>("op_780_cast_fp16")];
            tensor<int32, [4]> var_781 = const()[name = tensor<string, []>("op_781"), val = tensor<int32, [4]>([1, 8, 3, 145])];
            tensor<fp16, [1, 8, 3, 145]> matrix_bd_9_cast_fp16 = reshape(shape = var_781, x = var_780_cast_fp16)[name = tensor<string, []>("matrix_bd_9_cast_fp16")];
            tensor<bool, []> matrix_ac_5_transpose_x_0 = const()[name = tensor<string, []>("matrix_ac_5_transpose_x_0"), val = tensor<bool, []>(false)];
            tensor<bool, []> matrix_ac_5_transpose_y_0 = const()[name = tensor<string, []>("matrix_ac_5_transpose_y_0"), val = tensor<bool, []>(false)];
            tensor<int32, [4]> transpose_55_perm_0 = const()[name = tensor<string, []>("transpose_55_perm_0"), val = tensor<int32, [4]>([0, 2, -3, -1])];
            tensor<int32, [4]> transpose_56_perm_0 = const()[name = tensor<string, []>("transpose_56_perm_0"), val = tensor<int32, [4]>([0, 2, -1, -3])];
            tensor<fp16, [1, 8, 64, 73]> transpose_56 = transpose(perm = transpose_56_perm_0, x = k_9_cast_fp16)[name = tensor<string, []>("transpose_217")];
            tensor<fp16, [1, 8, 3, 64]> transpose_55 = transpose(perm = transpose_55_perm_0, x = var_764_cast_fp16)[name = tensor<string, []>("transpose_218")];
            tensor<fp16, [1, 8, 3, 73]> matrix_ac_5_cast_fp16 = matmul(transpose_x = matrix_ac_5_transpose_x_0, transpose_y = matrix_ac_5_transpose_y_0, x = transpose_55, y = transpose_56)[name = tensor<string, []>("matrix_ac_5_cast_fp16")];
            tensor<int32, [4]> matrix_bd_11_begin_0 = const()[name = tensor<string, []>("matrix_bd_11_begin_0"), val = tensor<int32, [4]>([0, 0, 0, 0])];
            tensor<int32, [4]> matrix_bd_11_end_0 = const()[name = tensor<string, []>("matrix_bd_11_end_0"), val = tensor<int32, [4]>([1, 8, 3, 73])];
            tensor<bool, [4]> matrix_bd_11_end_mask_0 = const()[name = tensor<string, []>("matrix_bd_11_end_mask_0"), val = tensor<bool, [4]>([true, true, true, false])];
            tensor<fp16, [1, 8, 3, 73]> matrix_bd_11_cast_fp16 = slice_by_index(begin = matrix_bd_11_begin_0, end = matrix_bd_11_end_0, end_mask = matrix_bd_11_end_mask_0, x = matrix_bd_9_cast_fp16)[name = tensor<string, []>("matrix_bd_11_cast_fp16")];
            tensor<fp16, [1, 8, 3, 73]> var_790_cast_fp16 = add(x = matrix_ac_5_cast_fp16, y = matrix_bd_11_cast_fp16)[name = tensor<string, []>("op_790_cast_fp16")];
            tensor<fp16, []> _inversed_scores_9_y_0_to_fp16 = const()[name = tensor<string, []>("_inversed_scores_9_y_0_to_fp16"), val = tensor<fp16, []>(0x1p-3)];
            tensor<fp16, [1, 8, 3, 73]> _inversed_scores_9_cast_fp16 = mul(x = var_790_cast_fp16, y = _inversed_scores_9_y_0_to_fp16)[name = tensor<string, []>("_inversed_scores_9_cast_fp16")];
            tensor<fp16, [1, 8, 3, 73]> scores_11_cast_fp16 = select(a = var_41_to_fp16, b = _inversed_scores_9_cast_fp16, cond = mask_3)[name = tensor<string, []>("scores_11_cast_fp16")];
            tensor<fp16, [1, 8, 3, 73]> var_796_cast_fp16 = softmax(axis = var_62, x = scores_11_cast_fp16)[name = tensor<string, []>("op_796_cast_fp16")];
            tensor<fp16, [1, 8, 3, 73]> input_145_cast_fp16 = select(a = var_40_to_fp16, b = var_796_cast_fp16, cond = mask_3)[name = tensor<string, []>("input_145_cast_fp16")];
            tensor<bool, []> x_65_transpose_x_0 = const()[name = tensor<string, []>("x_65_transpose_x_0"), val = tensor<bool, []>(false)];
            tensor<bool, []> x_65_transpose_y_0 = const()[name = tensor<string, []>("x_65_transpose_y_0"), val = tensor<bool, []>(false)];
            tensor<fp16, [1, 8, 73, 64]> value_7_cast_fp16 = transpose(perm = value_7_perm_0, x = v_5_cast_fp16)[name = tensor<string, []>("transpose_220")];
            tensor<fp16, [1, 8, 3, 64]> x_65_cast_fp16 = matmul(transpose_x = x_65_transpose_x_0, transpose_y = x_65_transpose_y_0, x = input_145_cast_fp16, y = value_7_cast_fp16)[name = tensor<string, []>("x_65_cast_fp16")];
            tensor<int32, [4]> var_800_perm_0 = const()[name = tensor<string, []>("op_800_perm_0"), val = tensor<int32, [4]>([0, 2, 1, 3])];
            tensor<int32, [3]> var_801 = const()[name = tensor<string, []>("op_801"), val = tensor<int32, [3]>([1, -1, 512])];
            tensor<fp16, [1, 3, 8, 64]> var_800_cast_fp16 = transpose(perm = var_800_perm_0, x = x_65_cast_fp16)[name = tensor<string, []>("transpose_216")];
            tensor<fp16, [1, 3, 512]> input_147_cast_fp16 = reshape(shape = var_801, x = var_800_cast_fp16)[name = tensor<string, []>("input_147_cast_fp16")];
            tensor<fp16, [512, 512]> encoder_layers_2_self_attn_linear_out_weight_to_fp16 = const()[name = tensor<string, []>("encoder_layers_2_self_attn_linear_out_weight_to_fp16"), val = tensor<fp16, [512, 512]>(BLOBFILE(path = tensor<string, []>("@model_path/weights/weight.bin"), offset = tensor<uint64, []>(35129536)))];
            tensor<fp16, [1, 3, 512]> linear_25_cast_fp16 = linear(bias = linear_2_bias_0_to_fp16, weight = encoder_layers_2_self_attn_linear_out_weight_to_fp16, x = input_147_cast_fp16)[name = tensor<string, []>("linear_25_cast_fp16")];
            tensor<fp16, [1, 3, 512]> input_151_cast_fp16 = add(x = input_141_cast_fp16, y = linear_25_cast_fp16)[name = tensor<string, []>("input_151_cast_fp16")];
            tensor<int32, [1]> x_69_axes_0 = const()[name = tensor<string, []>("x_69_axes_0"), val = tensor<int32, [1]>([-1])];
            tensor<fp16, [512]> encoder_layers_2_norm_conv_weight_to_fp16 = const()[name = tensor<string, []>("encoder_layers_2_norm_conv_weight_to_fp16"), val = tensor<fp16, [512]>(BLOBFILE(path = tensor<string, []>("@model_path/weights/weight.bin"), offset = tensor<uint64, []>(35653888)))];
            tensor<fp16, [512]> encoder_layers_2_norm_conv_bias_to_fp16 = const()[name = tensor<string, []>("encoder_layers_2_norm_conv_bias_to_fp16"), val = tensor<fp16, [512]>(BLOBFILE(path = tensor<string, []>("@model_path/weights/weight.bin"), offset = tensor<uint64, []>(35654976)))];
            tensor<fp16, [1, 3, 512]> x_69_cast_fp16 = layer_norm(axes = x_69_axes_0, beta = encoder_layers_2_norm_conv_bias_to_fp16, epsilon = var_38_to_fp16, gamma = encoder_layers_2_norm_conv_weight_to_fp16, x = input_151_cast_fp16)[name = tensor<string, []>("x_69_cast_fp16")];
            tensor<int32, [3]> input_153_perm_0 = const()[name = tensor<string, []>("input_153_perm_0"), val = tensor<int32, [3]>([0, 2, 1])];
            tensor<string, []> input_155_pad_type_0 = const()[name = tensor<string, []>("input_155_pad_type_0"), val = tensor<string, []>("valid")];
            tensor<int32, [1]> input_155_strides_0 = const()[name = tensor<string, []>("input_155_strides_0"), val = tensor<int32, [1]>([1])];
            tensor<int32, [2]> input_155_pad_0 = const()[name = tensor<string, []>("input_155_pad_0"), val = tensor<int32, [2]>([0, 0])];
            tensor<int32, [1]> input_155_dilations_0 = const()[name = tensor<string, []>("input_155_dilations_0"), val = tensor<int32, [1]>([1])];
            tensor<int32, []> input_155_groups_0 = const()[name = tensor<string, []>("input_155_groups_0"), val = tensor<int32, []>(1)];
            tensor<fp16, [1024, 512, 1]> encoder_layers_2_conv_pointwise_conv1_weight_to_fp16 = const()[name = tensor<string, []>("encoder_layers_2_conv_pointwise_conv1_weight_to_fp16"), val = tensor<fp16, [1024, 512, 1]>(BLOBFILE(path = tensor<string, []>("@model_path/weights/weight.bin"), offset = tensor<uint64, []>(35656064)))];
            tensor<fp16, [1, 512, 3]> input_153_cast_fp16 = transpose(perm = input_153_perm_0, x = x_69_cast_fp16)[name = tensor<string, []>("transpose_215")];
            tensor<fp16, [1, 1024, 3]> input_155_cast_fp16 = conv(dilations = input_155_dilations_0, groups = input_155_groups_0, pad = input_155_pad_0, pad_type = input_155_pad_type_0, strides = input_155_strides_0, weight = encoder_layers_2_conv_pointwise_conv1_weight_to_fp16, x = input_153_cast_fp16)[name = tensor<string, []>("input_155_cast_fp16")];
            tensor<int32, []> x_71_split_num_splits_0 = const()[name = tensor<string, []>("x_71_split_num_splits_0"), val = tensor<int32, []>(2)];
            tensor<int32, []> x_71_split_axis_0 = const()[name = tensor<string, []>("x_71_split_axis_0"), val = tensor<int32, []>(1)];
            tensor<fp16, [1, 512, 3]> x_71_split_cast_fp16_0, tensor<fp16, [1, 512, 3]> x_71_split_cast_fp16_1 = split(axis = x_71_split_axis_0, num_splits = x_71_split_num_splits_0, x = input_155_cast_fp16)[name = tensor<string, []>("x_71_split_cast_fp16")];
            tensor<fp16, [1, 512, 3]> x_71_split_1_sigmoid_cast_fp16 = sigmoid(x = x_71_split_cast_fp16_1)[name = tensor<string, []>("x_71_split_1_sigmoid_cast_fp16")];
            tensor<fp16, [1, 512, 3]> x_71_cast_fp16 = mul(x = x_71_split_cast_fp16_0, y = x_71_split_1_sigmoid_cast_fp16)[name = tensor<string, []>("x_71_cast_fp16")];
            tensor<fp16, [1, 512, 3]> input_157_cast_fp16 = select(a = var_40_to_fp16, b = x_71_cast_fp16, cond = var_418)[name = tensor<string, []>("input_157_cast_fp16")];
            tensor<bool, []> new_x_11_interleave_0 = const()[name = tensor<string, []>("new_x_11_interleave_0"), val = tensor<bool, []>(false)];
            tensor<fp16, [1, 512, 11]> new_x_11_cast_fp16 = concat(axis = var_62, interleave = new_x_11_interleave_0, values = (cache_11_cast_fp16, input_157_cast_fp16))[name = tensor<string, []>("new_x_11_cast_fp16")];
            tensor<int32, [3]> var_839_begin_0 = const()[name = tensor<string, []>("op_839_begin_0"), val = tensor<int32, [3]>([0, 0, 3])];
            tensor<int32, [3]> var_839_end_0 = const()[name = tensor<string, []>("op_839_end_0"), val = tensor<int32, [3]>([1, 512, 11])];
            tensor<bool, [3]> var_839_end_mask_0 = const()[name = tensor<string, []>("op_839_end_mask_0"), val = tensor<bool, [3]>([true, true, true])];
            tensor<fp16, [1, 512, 8]> var_839_cast_fp16 = slice_by_index(begin = var_839_begin_0, end = var_839_end_0, end_mask = var_839_end_mask_0, x = new_x_11_cast_fp16)[name = tensor<string, []>("op_839_cast_fp16")];
            tensor<string, []> x_73_pad_type_0 = const()[name = tensor<string, []>("x_73_pad_type_0"), val = tensor<string, []>("valid")];
            tensor<int32, []> x_73_groups_0 = const()[name = tensor<string, []>("x_73_groups_0"), val = tensor<int32, []>(512)];
            tensor<int32, [1]> x_73_strides_0 = const()[name = tensor<string, []>("x_73_strides_0"), val = tensor<int32, [1]>([1])];
            tensor<int32, [2]> x_73_pad_0 = const()[name = tensor<string, []>("x_73_pad_0"), val = tensor<int32, [2]>([0, 0])];
…
            tensor<fp16, [512]> encoder_layers_15_norm_conv_weight_to_fp16 = const()[name = tensor<string, []>("encoder_layers_15_norm_conv_weight_to_fp16"), val = tensor<fp16, [512]>(BLOBFILE(path = tensor<string, []>("@model_path/weights/weight.bin"), offset = tensor<uint64, []>(194674048)))];
            tensor<fp16, [512]> encoder_layers_15_norm_conv_bias_to_fp16 = const()[name = tensor<string, []>("encoder_layers_15_norm_conv_bias_to_fp16"), val = tensor<fp16, [512]>(BLOBFILE(path = tensor<string, []>("@model_path/weights/weight.bin"), offset = tensor<uint64, []>(194675136)))];
            tensor<fp16, [1, 3, 512]> x_407_cast_fp16 = layer_norm(axes = x_407_axes_0, beta = encoder_layers_15_norm_conv_bias_to_fp16, epsilon = var_38_to_fp16, gamma = encoder_layers_15_norm_conv_weight_to_fp16, x = input_827_cast_fp16)[name = tensor<string, []>("x_407_cast_fp16")];
            tensor<int32, [3]> input_829_perm_0 = const()[name = tensor<string, []>("input_829_perm_0"), val = tensor<int32, [3]>([0, 2, 1])];
            tensor<string, []> input_831_pad_type_0 = const()[name = tensor<string, []>("input_831_pad_type_0"), val = tensor<string, []>("valid")];
            tensor<int32, [1]> input_831_strides_0 = const()[name = tensor<string, []>("input_831_strides_0"), val = tensor<int32, [1]>([1])];
            tensor<int32, [2]> input_831_pad_0 = const()[name = tensor<string, []>("input_831_pad_0"), val = tensor<int32, [2]>([0, 0])];
            tensor<int32, [1]> input_831_dilations_0 = const()[name = tensor<string, []>("input_831_dilations_0"), val = tensor<int32, [1]>([1])];
            tensor<int32, []> input_831_groups_0 = const()[name = tensor<string, []>("input_831_groups_0"), val = tensor<int32, []>(1)];
            tensor<fp16, [1024, 512, 1]> encoder_layers_15_conv_pointwise_conv1_weight_to_fp16 = const()[name = tensor<string, []>("encoder_layers_15_conv_pointwise_conv1_weight_to_fp16"), val = tensor<fp16, [1024, 512, 1]>(BLOBFILE(path = tensor<string, []>("@model_path/weights/weight.bin"), offset = tensor<uint64, []>(194676224)))];
            tensor<fp16, [1, 512, 3]> input_829_cast_fp16 = transpose(perm = input_829_perm_0, x = x_407_cast_fp16)[name = tensor<string, []>("transpose_98")];
            tensor<fp16, [1, 1024, 3]> input_831_cast_fp16 = conv(dilations = input_831_dilations_0, groups = input_831_groups_0, pad = input_831_pad_0, pad_type = input_831_pad_type_0, strides = input_831_strides_0, weight = encoder_layers_15_conv_pointwise_conv1_weight_to_fp16, x = input_829_cast_fp16)[name = tensor<string, []>("input_831_cast_fp16")];
            tensor<int32, []> x_409_split_num_splits_0 = const()[name = tensor<string, []>("x_409_split_num_splits_0"), val = tensor<int32, []>(2)];
            tensor<int32, []> x_409_split_axis_0 = const()[name = tensor<string, []>("x_409_split_axis_0"), val = tensor<int32, []>(1)];
            tensor<fp16, [1, 512, 3]> x_409_split_cast_fp16_0, tensor<fp16, [1, 512, 3]> x_409_split_cast_fp16_1 = split(axis = x_409_split_axis_0, num_splits = x_409_split_num_splits_0, x = input_831_cast_fp16)[name = tensor<string, []>("x_409_split_cast_fp16")];
            tensor<fp16, [1, 512, 3]> x_409_split_1_sigmoid_cast_fp16 = sigmoid(x = x_409_split_cast_fp16_1)[name = tensor<string, []>("x_409_split_1_sigmoid_cast_fp16")];
            tensor<fp16, [1, 512, 3]> x_409_cast_fp16 = mul(x = x_409_split_cast_fp16_0, y = x_409_split_1_sigmoid_cast_fp16)[name = tensor<string, []>("x_409_cast_fp16")];
            tensor<fp16, [1, 512, 3]> input_833_cast_fp16 = select(a = var_40_to_fp16, b = x_409_cast_fp16, cond = var_418)[name = tensor<string, []>("input_833_cast_fp16")];
            tensor<bool, []> new_x_63_interleave_0 = const()[name = tensor<string, []>("new_x_63_interleave_0"), val = tensor<bool, []>(false)];
            tensor<fp16, [1, 512, 11]> new_x_63_cast_fp16 = concat(axis = var_62, interleave = new_x_63_interleave_0, values = (cache_63_cast_fp16, input_833_cast_fp16))[name = tensor<string, []>("new_x_63_cast_fp16")];
            tensor<int32, [3]> var_3491_begin_0 = const()[name = tensor<string, []>("op_3491_begin_0"), val = tensor<int32, [3]>([0, 0, 3])];
            tensor<int32, [3]> var_3491_end_0 = const()[name = tensor<string, []>("op_3491_end_0"), val = tensor<int32, [3]>([1, 512, 11])];
            tensor<bool, [3]> var_3491_end_mask_0 = const()[name = tensor<string, []>("op_3491_end_mask_0"), val = tensor<bool, [3]>([true, true, true])];
            tensor<fp16, [1, 512, 8]> var_3491_cast_fp16 = slice_by_index(begin = var_3491_begin_0, end = var_3491_end_0, end_mask = var_3491_end_mask_0, x = new_x_63_cast_fp16)[name = tensor<string, []>("op_3491_cast_fp16")];
            tensor<string, []> x_411_pad_type_0 = const()[name = tensor<string, []>("x_411_pad_type_0"), val = tensor<string, []>("valid")];
            tensor<int32, []> x_411_groups_0 = const()[name = tensor<string, []>("x_411_groups_0"), val = tensor<int32, []>(512)];
            tensor<int32, [1]> x_411_strides_0 = const()[name = tensor<string, []>("x_411_strides_0"), val = tensor<int32, [1]>([1])];
            tensor<int32, [2]> x_411_pad_0 = const()[name = tensor<string, []>("x_411_pad_0"), val = tensor<int32, [2]>([0, 0])];
            tensor<int32, [1]> x_411_dilations_0 = const()[name = tensor<string, []>("x_411_dilations_0"), val = tensor<int32, [1]>([1])];
            tensor<fp16, [512, 1, 9]> encoder_layers_15_conv_depthwise_conv_weight_to_fp16 = const()[name = tensor<string, []>("encoder_layers_15_conv_depthwise_conv_weight_to_fp16"), val = tensor<fp16, [512, 1, 9]>(BLOBFILE(path = tensor<string, []>("@model_path/weights/weight.bin"), offset = tensor<uint64, []>(195724864)))];
            tensor<fp16, [1, 512, 3]> x_411_cast_fp16 = conv(dilations = x_411_dilations_0, groups = x_411_groups_0, pad = x_411_pad_0, pad_type = x_411_pad_type_0, strides = x_411_strides_0, weight = encoder_layers_15_conv_depthwise_conv_weight_to_fp16, x = new_x_63_cast_fp16)[name = tensor<string, []>("x_411_cast_fp16")];
            tensor<int32, [3]> input_835_perm_0 = const()[name = tensor<string, []>("input_835_perm_0"), val = tensor<int32, [3]>([0, 2, 1])];
            tensor<int32, [1]> x_413_axes_0 = const()[name = tensor<string, []>("x_413_axes_0"), val = tensor<int32, [1]>([-1])];
            tensor<fp16, [512]> encoder_layers_15_conv_batch_norm_weight_to_fp16 = const()[name = tensor<string, []>("encoder_layers_15_conv_batch_norm_weight_to_fp16"), val = tensor<fp16, [512]>(BLOBFILE(path = tensor<string, []>("@model_path/weights/weight.bin"), offset = tensor<uint64, []>(195734144)))];
            tensor<fp16, [512]> encoder_layers_15_conv_batch_norm_bias_to_fp16 = const()[name = tensor<string, []>("encoder_layers_15_conv_batch_norm_bias_to_fp16"), val = tensor<fp16, [512]>(BLOBFILE(path = tensor<string, []>("@model_path/weights/weight.bin"), offset = tensor<uint64, []>(195735232)))];
            tensor<fp16, [1, 3, 512]> input_835_cast_fp16 = transpose(perm = input_835_perm_0, x = x_411_cast_fp16)[name = tensor<string, []>("transpose_97")];
            tensor<fp16, [1, 3, 512]> x_413_cast_fp16 = layer_norm(axes = x_413_axes_0, beta = encoder_layers_15_conv_batch_norm_bias_to_fp16, epsilon = var_38_to_fp16, gamma = encoder_layers_15_conv_batch_norm_weight_to_fp16, x = input_835_cast_fp16)[name = tensor<string, []>("x_413_cast_fp16")];
            tensor<int32, [3]> input_837_perm_0 = const()[name = tensor<string, []>("input_837_perm_0"), val = tensor<int32, [3]>([0, 2, 1])];
            tensor<fp16, [1, 512, 3]> input_837_cast_fp16 = transpose(perm = input_837_perm_0, x = x_413_cast_fp16)[name = tensor<string, []>("transpose_96")];
            tensor<fp16, [1, 512, 3]> input_839_cast_fp16 = silu(x = input_837_cast_fp16)[name = tensor<string, []>("input_839_cast_fp16")];
            tensor<string, []> x_415_pad_type_0 = const()[name = tensor<string, []>("x_415_pad_type_0"), val = tensor<string, []>("valid")];
            tensor<int32, [1]> x_415_strides_0 = const()[name = tensor<string, []>("x_415_strides_0"), val = tensor<int32, [1]>([1])];
            tensor<int32, [2]> x_415_pad_0 = const()[name = tensor<string, []>("x_415_pad_0"), val = tensor<int32, [2]>([0, 0])];
            tensor<int32, [1]> x_415_dilations_0 = const()[name = tensor<string, []>("x_415_dilations_0"), val = tensor<int32, [1]>([1])];
            tensor<int32, []> x_415_groups_0 = const()[name = tensor<string, []>("x_415_groups_0"), val = tensor<int32, []>(1)];
            tensor<fp16, [512, 512, 1]> encoder_layers_15_conv_pointwise_conv2_weight_to_fp16 = const()[name = tensor<string, []>("encoder_layers_15_conv_pointwise_conv2_weight_to_fp16"), val = tensor<fp16, [512, 512, 1]>(BLOBFILE(path = tensor<string, []>("@model_path/weights/weight.bin"), offset = tensor<uint64, []>(195736320)))];
            tensor<fp16, [1, 512, 3]> x_415_cast_fp16 = conv(dilations = x_415_dilations_0, groups = x_415_groups_0, pad = x_415_pad_0, pad_type = x_415_pad_type_0, strides = x_415_strides_0, weight = encoder_layers_15_conv_pointwise_conv2_weight_to_fp16, x = input_839_cast_fp16)[name = tensor<string, []>("x_415_cast_fp16")];
            tensor<int32, [3]> input_841_perm_0 = const()[name = tensor<string, []>("input_841_perm_0"), val = tensor<int32, [3]>([0, 2, 1])];
            tensor<fp16, [1, 3, 512]> input_841_cast_fp16 = transpose(perm = input_841_perm_0, x = x_415_cast_fp16)[name = tensor<string, []>("transpose_95")];
            tensor<fp16, [1, 3, 512]> input_843_cast_fp16 = add(x = input_827_cast_fp16, y = input_841_cast_fp16)[name = tensor<string, []>("input_843_cast_fp16")];
            tensor<int32, [1]> input_845_axes_0 = const()[name = tensor<string, []>("input_845_axes_0"), val = tensor<int32, [1]>([-1])];
            tensor<fp16, [512]> encoder_layers_15_norm_feed_forward2_weight_to_fp16 = const()[name = tensor<string, []>("encoder_layers_15_norm_feed_forward2_weight_to_fp16"), val = tensor<fp16, [512]>(BLOBFILE(path = tensor<string, []>("@model_path/weights/weight.bin"), offset = tensor<uint64, []>(196260672)))];
            tensor<fp16, [512]> encoder_layers_15_norm_feed_forward2_bias_to_fp16 = const()[name = tensor<string, []>("encoder_layers_15_norm_feed_forward2_bias_to_fp16"), val = tensor<fp16, [512]>(BLOBFILE(path = tensor<string, []>("@model_path/weights/weight.bin"), offset = tensor<uint64, []>(196261760)))];
            tensor<fp16, [1, 3, 512]> input_845_cast_fp16 = layer_norm(axes = input_845_axes_0, beta = encoder_layers_15_norm_feed_forward2_bias_to_fp16, epsilon = var_38_to_fp16, gamma = encoder_layers_15_norm_feed_forward2_weight_to_fp16, x = input_843_cast_fp16)[name = tensor<string, []>("input_845_cast_fp16")];
            tensor<fp16, [2048, 512]> encoder_layers_15_feed_forward2_linear1_weight_to_fp16 = const()[name = tensor<string, []>("encoder_layers_15_feed_forward2_linear1_weight_to_fp16"), val = tensor<fp16, [2048, 512]>(BLOBFILE(path = tensor<string, []>("@model_path/weights/weight.bin"), offset = tensor<uint64, []>(196262848)))];
            tensor<fp16, [1, 3, 2048]> linear_143_cast_fp16 = linear(bias = linear_1_bias_0_to_fp16, weight = encoder_layers_15_feed_forward2_linear1_weight_to_fp16, x = input_845_cast_fp16)[name = tensor<string, []>("linear_143_cast_fp16")];
            tensor<fp16, [1, 3, 2048]> input_849_cast_fp16 = silu(x = linear_143_cast_fp16)[name = tensor<string, []>("input_849_cast_fp16")];
            tensor<fp16, [512, 2048]> encoder_layers_15_feed_forward2_linear2_weight_to_fp16 = const()[name = tensor<string, []>("encoder_layers_15_feed_forward2_linear2_weight_to_fp16"), val = tensor<fp16, [512, 2048]>(BLOBFILE(path = tensor<string, []>("@model_path/weights/weight.bin"), offset = tensor<uint64, []>(198360064)))];
            tensor<fp16, [1, 3, 512]> linear_144_cast_fp16 = linear(bias = linear_2_bias_0_to_fp16, weight = encoder_layers_15_feed_forward2_linear2_weight_to_fp16, x = input_849_cast_fp16)[name = tensor<string, []>("linear_144_cast_fp16")];
            tensor<fp16, []> var_3532_to_fp16 = const()[name = tensor<string, []>("op_3532_to_fp16"), val = tensor<fp16, []>(0x1p-1)];
            tensor<fp16, [1, 3, 512]> var_3533_cast_fp16 = mul(x = linear_144_cast_fp16, y = var_3532_to_fp16)[name = tensor<string, []>("op_3533_cast_fp16")];
            tensor<fp16, [1, 3, 512]> input_855_cast_fp16 = add(x = input_843_cast_fp16, y = var_3533_cast_fp16)[name = tensor<string, []>("input_855_cast_fp16")];
            tensor<int32, [1]> input_857_axes_0 = const()[name = tensor<string, []>("input_857_axes_0"), val = tensor<int32, [1]>([-1])];
            tensor<fp16, [512]> encoder_layers_15_norm_out_weight_to_fp16 = const()[name = tensor<string, []>("encoder_layers_15_norm_out_weight_to_fp16"), val = tensor<fp16, [512]>(BLOBFILE(path = tensor<string, []>("@model_path/weights/weight.bin"), offset = tensor<uint64, []>(200457280)))];
            tensor<fp16, [512]> encoder_layers_15_norm_out_bias_to_fp16 = const()[name = tensor<string, []>("encoder_layers_15_norm_out_bias_to_fp16"), val = tensor<fp16, [512]>(BLOBFILE(path = tensor<string, []>("@model_path/weights/weight.bin"), offset = tensor<uint64, []>(200458368)))];
            tensor<fp16, [1, 3, 512]> input_857_cast_fp16 = layer_norm(axes = input_857_axes_0, beta = encoder_layers_15_norm_out_bias_to_fp16, epsilon = var_38_to_fp16, gamma = encoder_layers_15_norm_out_weight_to_fp16, x = input_855_cast_fp16)[name = tensor<string, []>("input_857_cast_fp16")];
            tensor<int32, [4]> cache_65_begin_0 = const()[name = tensor<string, []>("cache_65_begin_0"), val = tensor<int32, [4]>([16, 0, 0, 0])];
            tensor<int32, [4]> cache_65_end_0 = const()[name = tensor<string, []>("cache_65_end_0"), val = tensor<int32, [4]>([17, 1, 70, 512])];
            tensor<bool, [4]> cache_65_end_mask_0 = const()[name = tensor<string, []>("cache_65_end_mask_0"), val = tensor<bool, [4]>([false, true, true, true])];
            tensor<bool, [4]> cache_65_squeeze_mask_0 = const()[name = tensor<string, []>("cache_65_squeeze_mask_0"), val = tensor<bool, [4]>([true, false, false, false])];
            tensor<fp16, [1, 70, 512]> cache_65_cast_fp16 = slice_by_index(begin = cache_65_begin_0, end = cache_65_end_0, end_mask = cache_65_end_mask_0, squeeze_mask = cache_65_squeeze_mask_0, x = cache_last_channel_to_fp16)[name = tensor<string, []>("cache_65_cast_fp16")];
            tensor<int32, [4]> cache_begin_0 = const()[name = tensor<string, []>("cache_begin_0"), val = tensor<int32, [4]>([16, 0, 0, 0])];
            tensor<int32, [4]> cache_end_0 = const()[name = tensor<string, []>("cache_end_0"), val = tensor<int32, [4]>([17, 1, 512, 8])];
            tensor<bool, [4]> cache_end_mask_0 = const()[name = tensor<string, []>("cache_end_mask_0"), val = tensor<bool, [4]>([false, true, true, true])];
            tensor<bool, [4]> cache_squeeze_mask_0 = const()[name = tensor<string, []>("cache_squeeze_mask_0"), val = tensor<bool, [4]>([true, false, false, false])];
            tensor<fp16, [1, 512, 8]> cache_cast_fp16 = slice_by_index(begin = cache_begin_0, end = cache_end_0, end_mask = cache_end_mask_0, squeeze_mask = cache_squeeze_mask_0, x = cache_last_time_to_fp16)[name = tensor<string, []>("cache_cast_fp16")];
            tensor<int32, [1]> input_859_axes_0 = const()[name = tensor<string, []>("input_859_axes_0"), val = tensor<int32, [1]>([-1])];
            tensor<fp16, [512]> encoder_layers_16_norm_feed_forward1_weight_to_fp16 = const()[name = tensor<string, []>("encoder_layers_16_norm_feed_forward1_weight_to_fp16"), val = tensor<fp16, [512]>(BLOBFILE(path = tensor<string, []>("@model_path/weights/weight.bin"), offset = tensor<uint64, []>(200459456)))];
            tensor<fp16, [512]> encoder_layers_16_norm_feed_forward1_bias_to_fp16 = const()[name = tensor<string, []>("encoder_layers_16_norm_feed_forward1_bias_to_fp16"), val = tensor<fp16, [512]>(BLOBFILE(path = tensor<string, []>("@model_path/weights/weight.bin"), offset = tensor<uint64, []>(200460544)))];
            tensor<fp16, [1, 3, 512]> input_859_cast_fp16 = layer_norm(axes = input_859_axes_0, beta = encoder_layers_16_norm_feed_forward1_bias_to_fp16, epsilon = var_38_to_fp16, gamma = encoder_layers_16_norm_feed_forward1_weight_to_fp16, x = input_857_cast_fp16)[name = tensor<string, []>("input_859_cast_fp16")];
            tensor<fp16, [2048, 512]> encoder_layers_16_feed_forward1_linear1_weight_to_fp16 = const()[name = tensor<string, []>("encoder_layers_16_feed_forward1_linear1_weight_to_fp16"), val = tensor<fp16, [2048, 512]>(BLOBFILE(path = tensor<string, []>("@model_path/weights/weight.bin"), offset = tensor<uint64, []>(200461632)))];
            tensor<fp16, [1, 3, 2048]> linear_145_cast_fp16 = linear(bias = linear_1_bias_0_to_fp16, weight = encoder_layers_16_feed_forward1_linear1_weight_to_fp16, x = input_859_cast_fp16)[name = tensor<string, []>("linear_145_cast_fp16")];
            tensor<fp16, [1, 3, 2048]> input_863_cast_fp16 = silu(x = linear_145_cast_fp16)[name = tensor<string, []>("input_863_cast_fp16")];
            tensor<fp16, [512, 2048]> encoder_layers_16_feed_forward1_linear2_weight_to_fp16 = const()[name = tensor<string, []>("encoder_layers_16_feed_forward1_linear2_weight_to_fp16"), val = tensor<fp16, [512, 2048]>(BLOBFILE(path = tensor<string, []>("@model_path/weights/weight.bin"), offset = tensor<uint64, []>(202558848)))];
            tensor<fp16, [1, 3, 512]> linear_146_cast_fp16 = linear(bias = linear_2_bias_0_to_fp16, weight = encoder_layers_16_feed_forward1_linear2_weight_to_fp16, x = input_863_cast_fp16)[name = tensor<string, []>("linear_146_cast_fp16")];
            tensor<fp16, []> var_3567_to_fp16 = const()[name = tensor<string, []>("op_3567_to_fp16"), val = tensor<fp16, []>(0x1p-1)];
            tensor<fp16, [1, 3, 512]> var_3568_cast_fp16 = mul(x = linear_146_cast_fp16, y = var_3567_to_fp16)[name = tensor<string, []>("op_3568_cast_fp16")];
            tensor<fp16, [1, 3, 512]> input_869_cast_fp16 = add(x = input_857_cast_fp16, y = var_3568_cast_fp16)[name = tensor<string, []>("input_869_cast_fp16")];
            tensor<int32, [1]> key_axes_0 = const()[name = tensor<string, []>("key_axes_0"), val = tensor<int32, [1]>([-1])];
            tensor<fp16, [512]> encoder_layers_16_norm_self_att_weight_to_fp16 = const()[name = tensor<string, []>("encoder_layers_16_norm_self_att_weight_to_fp16"), val = tensor<fp16, [512]>(BLOBFILE(path = tensor<string, []>("@model_path/weights/weight.bin"), offset = tensor<uint64, []>(204656064)))];
            tensor<fp16, [512]> encoder_layers_16_norm_self_att_bias_to_fp16 = const()[name = tensor<string, []>("encoder_layers_16_norm_self_att_bias_to_fp16"), val = tensor<fp16, [512]>(BLOBFILE(path = tensor<string, []>("@model_path/weights/weight.bin"), offset = tensor<uint64, []>(204657152)))];
            tensor<fp16, [1, 3, 512]> key_cast_fp16 = layer_norm(axes = key_axes_0, beta = encoder_layers_16_norm_self_att_bias_to_fp16, epsilon = var_38_to_fp16, gamma = encoder_layers_16_norm_self_att_weight_to_fp16, x = input_869_cast_fp16)[name = tensor<string, []>("key_cast_fp16")];
            tensor<bool, []> input_871_interleave_0 = const()[name = tensor<string, []>("input_871_interleave_0"), val = tensor<bool, []>(false)];
            tensor<fp16, [1, 73, 512]> input_871_cast_fp16 = concat(axis = var_64, interleave = input_871_interleave_0, values = (cache_65_cast_fp16, key_cast_fp16))[name = tensor<string, []>("input_871_cast_fp16")];
            tensor<int32, [3]> var_3590_begin_0 = const()[name = tensor<string, []>("op_3590_begin_0"), val = tensor<int32, [3]>([0, 3, 0])];
            tensor<int32, [3]> var_3590_end_0 = const()[name = tensor<string, []>("op_3590_end_0"), val = tensor<int32, [3]>([1, 70, 512])];
            tensor<bool, [3]> var_3590_end_mask_0 = const()[name = tensor<string, []>("op_3590_end_mask_0"), val = tensor<bool, [3]>([true, true, true])];
            tensor<fp16, [1, 67, 512]> var_3590_cast_fp16 = slice_by_index(begin = var_3590_begin_0, end = var_3590_end_0, end_mask = var_3590_end_mask_0, x = cache_65_cast_fp16)[name = tensor<string, []>("op_3590_cast_fp16")];
            tensor<bool, []> cache_last_channel_cur_interleave_0 = const()[name = tensor<string, []>("cache_last_channel_cur_interleave_0"), val = tensor<bool, []>(false)];
            tensor<fp16, [1, 70, 512]> cache_last_channel_cur_cast_fp16 = concat(axis = var_64, interleave = cache_last_channel_cur_interleave_0, values = (var_3590_cast_fp16, key_cast_fp16))[name = tensor<string, []>("cache_last_channel_cur_cast_fp16")];
            tensor<fp16, [512, 512]> encoder_layers_16_self_attn_linear_q_weight_to_fp16 = const()[name = tensor<string, []>("encoder_layers_16_self_attn_linear_q_weight_to_fp16"), val = tensor<fp16, [512, 512]>(BLOBFILE(path = tensor<string, []>("@model_path/weights/weight.bin"), offset = tensor<uint64, []>(204658240)))];
            tensor<fp16, [1, 3, 512]> linear_147_cast_fp16 = linear(bias = linear_2_bias_0_to_fp16, weight = encoder_layers_16_self_attn_linear_q_weight_to_fp16, x = key_cast_fp16)[name = tensor<string, []>("linear_147_cast_fp16")];
            tensor<int32, [4]> var_3600 = const()[name = tensor<string, []>("op_3600"), val = tensor<int32, [4]>([1, -1, 8, 64])];
            tensor<fp16, [1, 3, 8, 64]> q_97_cast_fp16 = reshape(shape = var_3600, x = linear_147_cast_fp16)[name = tensor<string, []>("q_97_cast_fp16")];
            tensor<fp16, [512, 512]> encoder_layers_16_self_attn_linear_k_weight_to_fp16 = const()[name = tensor<string, []>("encoder_layers_16_self_attn_linear_k_weight_to_fp16"), val = tensor<fp16, [512, 512]>(BLOBFILE(path = tensor<string, []>("@model_path/weights/weight.bin"), offset = tensor<uint64, []>(205182592)))];
            tensor<fp16, [1, 73, 512]> linear_148_cast_fp16 = linear(bias = linear_2_bias_0_to_fp16, weight = encoder_layers_16_self_attn_linear_k_weight_to_fp16, x = input_871_cast_fp16)[name = tensor<string, []>("linear_148_cast_fp16")];
            tensor<int32, [4]> var_3604 = const()[name = tensor<string, []>("op_3604"), val = tensor<int32, [4]>([1, -1, 8, 64])];
            tensor<fp16, [1, 73, 8, 64]> k_65_cast_fp16 = reshape(shape = var_3604, x = linear_148_cast_fp16)[name = tensor<string, []>("k_65_cast_fp16")];
            tensor<fp16, [512, 512]> encoder_layers_16_self_attn_linear_v_weight_to_fp16 = const()[name = tensor<string, []>("encoder_layers_16_self_attn_linear_v_weight_to_fp16"), val = tensor<fp16, [512, 512]>(BLOBFILE(path = tensor<string, []>("@model_path/weights/weight.bin"), offset = tensor<uint64, []>(205706944)))];
            tensor<fp16, [1, 73, 512]> linear_149_cast_fp16 = linear(bias = linear_2_bias_0_to_fp16, weight = encoder_layers_16_self_attn_linear_v_weight_to_fp16, x = input_871_cast_fp16)[name = tensor<string, []>("linear_149_cast_fp16")];
            tensor<int32, [4]> var_3608 = const()[name = tensor<string, []>("op_3608"), val = tensor<int32, [4]>([1, -1, 8, 64])];
            tensor<fp16, [1, 73, 8, 64]> v_cast_fp16 = reshape(shape = var_3608, x = linear_149_cast_fp16)[name = tensor<string, []>("v_cast_fp16")];
            tensor<int32, [4]> value_perm_0 = const()[name = tensor<string, []>("value_perm_0"), val = tensor<int32, [4]>([0, 2, 1, 3])];
            tensor<fp16, [8, 64]> encoder_layers_16_self_attn_pos_bias_u_to_fp16 = const()[name = tensor<string, []>("encoder_layers_16_self_attn_pos_bias_u_to_fp16"), val = tensor<fp16, [8, 64]>(BLOBFILE(path = tensor<string, []>("@model_path/weights/weight.bin"), offset = tensor<uint64, []>(206231296)))];
            tensor<fp16, [1, 3, 8, 64]> var_3620_cast_fp16 = add(x = q_97_cast_fp16, y = encoder_layers_16_self_attn_pos_bias_u_to_fp16)[name = tensor<string, []>("op_3620_cast_fp16")];
            tensor<fp16, [8, 64]> encoder_layers_16_self_attn_pos_bias_v_to_fp16 = const()[name = tensor<string, []>("encoder_layers_16_self_attn_pos_bias_v_to_fp16"), val = tensor<fp16, [8, 64]>(BLOBFILE(path = tensor<string, []>("@model_path/weights/weight.bin"), offset = tensor<uint64, []>(206232384)))];
            tensor<fp16, [1, 3, 8, 64]> var_3622_cast_fp16 = add(x = q_97_cast_fp16, y = encoder_layers_16_self_attn_pos_bias_v_to_fp16)[name = tensor<string, []>("op_3622_cast_fp16")];
            tensor<int32, [4]> q_with_bias_v_perm_0 = const()[name = tensor<string, []>("q_with_bias_v_perm_0"), val = tensor<int32, [4]>([0, 2, 1, 3])];
            tensor<bool, []> x_423_transpose_x_0 = const()[name = tensor<string, []>("x_423_transpose_x_0"), val = tensor<bool, []>(false)];
            tensor<bool, []> x_423_transpose_y_0 = const()[name = tensor<string, []>("x_423_transpose_y_0"), val = tensor<bool, []>(false)];
            tensor<fp16, [1, 8, 64, 145]> var_3624_to_fp16 = const()[name = tensor<string, []>("op_3624_to_fp16"), val = tensor<fp16, [1, 8, 64, 145]>(BLOBFILE(path = tensor<string, []>("@model_path/weights/weight.bin"), offset = tensor<uint64, []>(206233472)))];
            tensor<fp16, [1, 8, 3, 64]> q_with_bias_v_cast_fp16 = transpose(perm = q_with_bias_v_perm_0, x = var_3622_cast_fp16)[name = tensor<string, []>("transpose_93")];
            tensor<fp16, [1, 8, 3, 145]> x_423_cast_fp16 = matmul(transpose_x = x_423_transpose_x_0, transpose_y = x_423_transpose_y_0, x = q_with_bias_v_cast_fp16, y = var_3624_to_fp16)[name = tensor<string, []>("x_423_cast_fp16")];
            tensor<int32, [8]> x_425_pad_0 = const()[name = tensor<string, []>("x_425_pad_0"), val = tensor<int32, [8]>([0, 0, 0, 0, 0, 0, 1, 0])];
            tensor<string, []> x_425_mode_0 = const()[name = tensor<string, []>("x_425_mode_0"), val = tensor<string, []>("constant")];
            tensor<fp16, []> const_231_to_fp16 = const()[name = tensor<string, []>("const_231_to_fp16"), val = tensor<fp16, []>(0x0p+0)];
            tensor<fp16, [1, 8, 3, 146]> x_425_cast_fp16 = pad(constant_val = const_231_to_fp16, mode = x_425_mode_0, pad = x_425_pad_0, x = x_423_cast_fp16)[name = tensor<string, []>("x_425_cast_fp16")];
            tensor<int32, [4]> var_3632 = const()[name = tensor<string, []>("op_3632"), val = tensor<int32, [4]>([1, 8, -1, 3])];
            tensor<fp16, [1, 8, 146, 3]> x_427_cast_fp16 = reshape(shape = var_3632, x = x_425_cast_fp16)[name = tensor<string, []>("x_427_cast_fp16")];
            tensor<int32, [4]> var_3636_begin_0 = const()[name = tensor<string, []>("op_3636_begin_0"), val = tensor<int32, [4]>([0, 0, 1, 0])];
            tensor<int32, [4]> var_3636_end_0 = const()[name = tensor<string, []>("op_3636_end_0"), val = tensor<int32, [4]>([1, 8, 146, 3])];
            tensor<bool, [4]> var_3636_end_mask_0 = const()[name = tensor<string, []>("op_3636_end_mask_0"), val = tensor<bool, [4]>([true, true, true, true])];
            tensor<fp16, [1, 8, 145, 3]> var_3636_cast_fp16 = slice_by_index(begin = var_3636_begin_0, end = var_3636_end_0, end_mask = var_3636_end_mask_0, x = x_427_cast_fp16)[name = tensor<string, []>("op_3636_cast_fp16")];
            tensor<int32, [4]> var_3637 = const()[name = tensor<string, []>("op_3637"), val = tensor<int32, [4]>([1, 8, 3, 145])];
            tensor<fp16, [1, 8, 3, 145]> matrix_bd_65_cast_fp16 = reshape(shape = var_3637, x = var_3636_cast_fp16)[name = tensor<string, []>("matrix_bd_65_cast_fp16")];
            tensor<bool, []> matrix_ac_transpose_x_0 = const()[name = tensor<string, []>("matrix_ac_transpose_x_0"), val = tensor<bool, []>(false)];
            tensor<bool, []> matrix_ac_transpose_y_0 = const()[name = tensor<string, []>("matrix_ac_transpose_y_0"), val = tensor<bool, []>(false)];
            tensor<int32, [4]> transpose_83_perm_0 = const()[name = tensor<string, []>("transpose_83_perm_0"), val = tensor<int32, [4]>([0, 2, -3, -1])];
            tensor<int32, [4]> transpose_84_perm_0 = const()[name = tensor<string, []>("transpose_84_perm_0"), val = tensor<int32, [4]>([0, 2, -1, -3])];
            tensor<fp16, [1, 8, 64, 73]> transpose_84 = transpose(perm = transpose_84_perm_0, x = k_65_cast_fp16)[name = tensor<string, []>("transpose_91")];
            tensor<fp16, [1, 8, 3, 64]> transpose_83 = transpose(perm = transpose_83_perm_0, x = var_3620_cast_fp16)[name = tensor<string, []>("transpose_92")];
            tensor<fp16, [1, 8, 3, 73]> matrix_ac_cast_fp16 = matmul(transpose_x = matrix_ac_transpose_x_0, transpose_y = matrix_ac_transpose_y_0, x = transpose_83, y = transpose_84)[name = tensor<string, []>("matrix_ac_cast_fp16")];
            tensor<int32, [4]> matrix_bd_begin_0 = const()[name = tensor<string, []>("matrix_bd_begin_0"), val = tensor<int32, [4]>([0, 0, 0, 0])];
            tensor<int32, [4]> matrix_bd_end_0 = const()[name = tensor<string, []>("matrix_bd_end_0"), val = tensor<int32, [4]>([1, 8, 3, 73])];
            tensor<bool, [4]> matrix_bd_end_mask_0 = const()[name = tensor<string, []>("matrix_bd_end_mask_0"), val = tensor<bool, [4]>([true, true, true, false])];
            tensor<fp16, [1, 8, 3, 73]> matrix_bd_cast_fp16 = slice_by_index(begin = matrix_bd_begin_0, end = matrix_bd_end_0, end_mask = matrix_bd_end_mask_0, x = matrix_bd_65_cast_fp16)[name = tensor<string, []>("matrix_bd_cast_fp16")];
            tensor<fp16, [1, 8, 3, 73]> var_3646_cast_fp16 = add(x = matrix_ac_cast_fp16, y = matrix_bd_cast_fp16)[name = tensor<string, []>("op_3646_cast_fp16")];
            tensor<fp16, []> _inversed_scores_65_y_0_to_fp16 = const()[name = tensor<string, []>("_inversed_scores_65_y_0_to_fp16"), val = tensor<fp16, []>(0x1p-3)];
            tensor<fp16, [1, 8, 3, 73]> _inversed_scores_65_cast_fp16 = mul(x = var_3646_cast_fp16, y = _inversed_scores_65_y_0_to_fp16)[name = tensor<string, []>("_inversed_scores_65_cast_fp16")];
            tensor<fp16, [1, 8, 3, 73]> scores_cast_fp16 = select(a = var_41_to_fp16, b = _inversed_scores_65_cast_fp16, cond = mask_3)[name = tensor<string, []>("scores_cast_fp16")];
            tensor<fp16, [1, 8, 3, 73]> var_3652_cast_fp16 = softmax(axis = var_62, x = scores_cast_fp16)[name = tensor<string, []>("op_3652_cast_fp16")];
            tensor<fp16, [1, 8, 3, 73]> input_873_cast_fp16 = select(a = var_40_to_fp16, b = var_3652_cast_fp16, cond = mask_3)[name = tensor<string, []>("input_873_cast_fp16")];
            tensor<bool, []> x_429_transpose_x_0 = const()[name = tensor<string, []>("x_429_transpose_x_0"), val = tensor<bool, []>(false)];
            tensor<bool, []> x_429_transpose_y_0 = const()[name = tensor<string, []>("x_429_transpose_y_0"), val = tensor<bool, []>(false)];
            tensor<fp16, [1, 8, 73, 64]> value_cast_fp16 = transpose(perm = value_perm_0, x = v_cast_fp16)[name = tensor<string, []>("transpose_94")];
            tensor<fp16, [1, 8, 3, 64]> x_429_cast_fp16 = matmul(transpose_x = x_429_transpose_x_0, transpose_y = x_429_transpose_y_0, x = input_873_cast_fp16, y = value_cast_fp16)[name = tensor<string, []>("x_429_cast_fp16")];
            tensor<int32, [4]> var_3656_perm_0 = const()[name = tensor<string, []>("op_3656_perm_0"), val = tensor<int32, [4]>([0, 2, 1, 3])];
            tensor<int32, [3]> var_3657 = const()[name = tensor<string, []>("op_3657"), val = tensor<int32, [3]>([1, -1, 512])];
            tensor<fp16, [1, 3, 8, 64]> var_3656_cast_fp16 = transpose(perm = var_3656_perm_0, x = x_429_cast_fp16)[name = tensor<string, []>("transpose_90")];
            tensor<fp16, [1, 3, 512]> input_875_cast_fp16 = reshape(shape = var_3657, x = var_3656_cast_fp16)[name = tensor<string, []>("input_875_cast_fp16")];
            tensor<fp16, [512, 512]> encoder_layers_16_self_attn_linear_out_weight_to_fp16 = const()[name = tensor<string, []>("encoder_layers_16_self_attn_linear_out_weight_to_fp16"), val = tensor<fp16, [512, 512]>(BLOBFILE(path = tensor<string, []>("@model_path/weights/weight.bin"), offset = tensor<uint64, []>(206382016)))];
            tensor<fp16, [1, 3, 512]> linear_151_cast_fp16 = linear(bias = linear_2_bias_0_to_fp16, weight = encoder_layers_16_self_attn_linear_out_weight_to_fp16, x = input_875_cast_fp16)[name = tensor<string, []>("linear_151_cast_fp16")];
            tensor<fp16, [1, 3, 512]> input_879_cast_fp16 = add(x = input_869_cast_fp16, y = linear_151_cast_fp16)[name = tensor<string, []>("input_879_cast_fp16")];
            tensor<int32, [1]> x_433_axes_0 = const()[name = tensor<string, []>("x_433_axes_0"), val = tensor<int32, [1]>([-1])];
            tensor<fp16, [512]> encoder_layers_16_norm_conv_weight_to_fp16 = const()[name = tensor<string, []>("encoder_layers_16_norm_conv_weight_to_fp16"), val = tensor<fp16, [512]>(BLOBFILE(path = tensor<string, []>("@model_path/weights/weight.bin"), offset = tensor<uint64, []>(206906368)))];
            tensor<fp16, [512]> encoder_layers_16_norm_conv_bias_to_fp16 = const()[name = tensor<string, []>("encoder_layers_16_norm_conv_bias_to_fp16"), val = tensor<fp16, [512]>(BLOBFILE(path = tensor<string, []>("@model_path/weights/weight.bin"), offset = tensor<uint64, []>(206907456)))];
            tensor<fp16, [1, 3, 512]> x_433_cast_fp16 = layer_norm(axes = x_433_axes_0, beta = encoder_layers_16_norm_conv_bias_to_fp16, epsilon = var_38_to_fp16, gamma = encoder_layers_16_norm_conv_weight_to_fp16, x = input_879_cast_fp16)[name = tensor<string, []>("x_433_cast_fp16")];
            tensor<int32, [3]> input_881_perm_0 = const()[name = tensor<string, []>("input_881_perm_0"), val = tensor<int32, [3]>([0, 2, 1])];
            tensor<string, []> input_883_pad_type_0 = const()[name = tensor<string, []>("input_883_pad_type_0"), val = tensor<string, []>("valid")];
            tensor<int32, [1]> input_883_strides_0 = const()[name = tensor<string, []>("input_883_strides_0"), val = tensor<int32, [1]>([1])];
            tensor<int32, [2]> input_883_pad_0 = const()[name = tensor<string, []>("input_883_pad_0"), val = tensor<int32, [2]>([0, 0])];
            tensor<int32, [1]> input_883_dilations_0 = const()[name = tensor<string, []>("input_883_dilations_0"), val = tensor<int32, [1]>([1])];
            tensor<int32, []> input_883_groups_0 = const()[name = tensor<string, []>("input_883_groups_0"), val = tensor<int32, []>(1)];
            tensor<fp16, [1024, 512, 1]> encoder_layers_16_conv_pointwise_conv1_weight_to_fp16 = const()[name = tensor<string, []>("encoder_layers_16_conv_pointwise_conv1_weight_to_fp16"), val = tensor<fp16, [1024, 512, 1]>(BLOBFILE(path = tensor<string, []>("@model_path/weights/weight.bin"), offset = tensor<uint64, []>(206908544)))];
            tensor<fp16, [1, 512, 3]> input_881_cast_fp16 = transpose(perm = input_881_perm_0, x = x_433_cast_fp16)[name = tensor<string, []>("transpose_89")];
            tensor<fp16, [1, 1024, 3]> input_883_cast_fp16 = conv(dilations = input_883_dilations_0, groups = input_883_groups_0, pad = input_883_pad_0, pad_type = input_883_pad_type_0, strides = input_883_strides_0, weight = encoder_layers_16_conv_pointwise_conv1_weight_to_fp16, x = input_881_cast_fp16)[name = tensor<string, []>("input_883_cast_fp16")];
            tensor<int32, []> x_435_split_num_splits_0 = const()[name = tensor<string, []>("x_435_split_num_splits_0"), val = tensor<int32, []>(2)];
            tensor<int32, []> x_435_split_axis_0 = const()[name = tensor<string, []>("x_435_split_axis_0"), val = tensor<int32, []>(1)];
            tensor<fp16, [1, 512, 3]> x_435_split_cast_fp16_0, tensor<fp16, [1, 512, 3]> x_435_split_cast_fp16_1 = split(axis = x_435_split_axis_0, num_splits = x_435_split_num_splits_0, x = input_883_cast_fp16)[name = tensor<string, []>("x_435_split_cast_fp16")];
            tensor<fp16, [1, 512, 3]> x_435_split_1_sigmoid_cast_fp16 = sigmoid(x = x_435_split_cast_fp16_1)[name = tensor<string, []>("x_435_split_1_sigmoid_cast_fp16")];
            tensor<fp16, [1, 512, 3]> x_435_cast_fp16 = mul(x = x_435_split_cast_fp16_0, y = x_435_split_1_sigmoid_cast_fp16)[name = tensor<string, []>("x_435_cast_fp16")];
            tensor<fp16, [1, 512, 3]> input_885_cast_fp16 = select(a = var_40_to_fp16, b = x_435_cast_fp16, cond = var_418)[name = tensor<string, []>("input_885_cast_fp16")];
            tensor<bool, []> new_x_interleave_0 = const()[name = tensor<string, []>("new_x_interleave_0"), val = tensor<bool, []>(false)];
            tensor<fp16, [1, 512, 11]> new_x_cast_fp16 = concat(axis = var_62, interleave = new_x_interleave_0, values = (cache_cast_fp16, input_885_cast_fp16))[name = tensor<string, []>("new_x_cast_fp16")];
            tensor<int32, [3]> cache_last_time_cur_begin_0 = const()[name = tensor<string, []>("cache_last_time_cur_begin_0"), val = tensor<int32, [3]>([0, 0, 3])];
            tensor<int32, [3]> cache_last_time_cur_end_0 = const()[name = tensor<string, []>("cache_last_time_cur_end_0"), val = tensor<int32, [3]>([1, 512, 11])];
            tensor<bool, [3]> cache_last_time_cur_end_mask_0 = const()[name = tensor<string, []>("cache_last_time_cur_end_mask_0"), val = tensor<bool, [3]>([true, true, true])];
            tensor<fp16, [1, 512, 8]> cache_last_time_cur_cast_fp16 = slice_by_index(begin = cache_last_time_cur_begin_0, end = cache_last_time_cur_end_0, end_mask = cache_last_time_cur_end_mask_0, x = new_x_cast_fp16)[name = tensor<string, []>("cache_last_time_cur_cast_fp16")];
            tensor<string, []> x_437_pad_type_0 = const()[name = tensor<string, []>("x_437_pad_type_0"), val = tensor<string, []>("valid")];
            tensor<int32, []> x_437_groups_0 = const()[name = tensor<string, []>("x_437_groups_0"), val = tensor<int32, []>(512)];
            tensor<int32, [1]> x_437_strides_0 = const()[name = tensor<string, []>("x_437_strides_0"), val = tensor<int32, [1]>([1])];
            tensor<int32, [2]> x_437_pad_0 = const()[name = tensor<string, []>("x_437_pad_0"), val = tensor<int32, [2]>([0, 0])];
            tensor<int32, [1]> x_437_dilations_0 = const()[name = tensor<string, []>("x_437_dilations_0"), val = tensor<int32, [1]>([1])];
            tensor<fp16, [512, 1, 9]> encoder_layers_16_conv_depthwise_conv_weight_to_fp16 = const()[name = tensor<string, []>("encoder_layers_16_conv_depthwise_conv_weight_to_fp16"), val = tensor<fp16, [512, 1, 9]>(BLOBFILE(path = tensor<string, []>("@model_path/weights/weight.bin"), offset = tensor<uint64, []>(207957184)))];
            tensor<fp16, [1, 512, 3]> x_437_cast_fp16 = conv(dilations = x_437_dilations_0, groups = x_437_groups_0, pad = x_437_pad_0, pad_type = x_437_pad_type_0, strides = x_437_strides_0, weight = encoder_layers_16_conv_depthwise_conv_weight_to_fp16, x = new_x_cast_fp16)[name = tensor<string, []>("x_437_cast_fp16")];
            tensor<int32, [3]> input_887_perm_0 = const()[name = tensor<string, []>("input_887_perm_0"), val = tensor<int32, [3]>([0, 2, 1])];
            tensor<int32, [1]> x_439_axes_0 = const()[name = tensor<string, []>("x_439_axes_0"), val = tensor<int32, [1]>([-1])];
            tensor<fp16, [512]> encoder_layers_16_conv_batch_norm_weight_to_fp16 = const()[name = tensor<string, []>("encoder_layers_16_conv_batch_norm_weight_to_fp16"), val = tensor<fp16, [512]>(BLOBFILE(path = tensor<string, []>("@model_path/weights/weight.bin"), offset = tensor<uint64, []>(207966464)))];
            tensor<fp16, [512]> encoder_layers_16_conv_batch_norm_bias_to_fp16 = const()[name = tensor<string, []>("encoder_layers_16_conv_batch_norm_bias_to_fp16"), val = tensor<fp16, [512]>(BLOBFILE(path = tensor<string, []>("@model_path/weights/weight.bin"), offset = tensor<uint64, []>(207967552)))];
            tensor<fp16, [1, 3, 512]> input_887_cast_fp16 = transpose(perm = input_887_perm_0, x = x_437_cast_fp16)[name = tensor<string, []>("transpose_88")];
            tensor<fp16, [1, 3, 512]> x_439_cast_fp16 = layer_norm(axes = x_439_axes_0, beta = encoder_layers_16_conv_batch_norm_bias_to_fp16, epsilon = var_38_to_fp16, gamma = encoder_layers_16_conv_batch_norm_weight_to_fp16, x = input_887_cast_fp16)[name = tensor<string, []>("x_439_cast_fp16")];
            tensor<int32, [3]> input_889_perm_0 = const()[name = tensor<string, []>("input_889_perm_0"), val = tensor<int32, [3]>([0, 2, 1])];
            tensor<fp16, [1, 512, 3]> input_889_cast_fp16 = transpose(perm = input_889_perm_0, x = x_439_cast_fp16)[name = tensor<string, []>("transpose_87")];
            tensor<fp16, [1, 512, 3]> input_891_cast_fp16 = silu(x = input_889_cast_fp16)[name = tensor<string, []>("input_891_cast_fp16")];
            tensor<string, []> x_441_pad_type_0 = const()[name = tensor<string, []>("x_441_pad_type_0"), val = tensor<string, []>("valid")];
            tensor<int32, [1]> x_441_strides_0 = const()[name = tensor<string, []>("x_441_strides_0"), val = tensor<int32, [1]>([1])];
            tensor<int32, [2]> x_441_pad_0 = const()[name = tensor<string, []>("x_441_pad_0"), val = tensor<int32, [2]>([0, 0])];
            tensor<int32, [1]> x_441_dilations_0 = const()[name = tensor<string, []>("x_441_dilations_0"), val = tensor<int32, [1]>([1])];
            tensor<int32, []> x_441_groups_0 = const()[name = tensor<string, []>("x_441_groups_0"), val = tensor<int32, []>(1)];
            tensor<fp16, [512, 512, 1]> encoder_layers_16_conv_pointwise_conv2_weight_to_fp16 = const()[name = tensor<string, []>("encoder_layers_16_conv_pointwise_conv2_weight_to_fp16"), val = tensor<fp16, [512, 512, 1]>(BLOBFILE(path = tensor<string, []>("@model_path/weights/weight.bin"), offset = tensor<uint64, []>(207968640)))];
            tensor<fp16, [1, 512, 3]> x_441_cast_fp16 = conv(dilations = x_441_dilations_0, groups = x_441_groups_0, pad = x_441_pad_0, pad_type = x_441_pad_type_0, strides = x_441_strides_0, weight = encoder_layers_16_conv_pointwise_conv2_weight_to_fp16, x = input_891_cast_fp16)[name = tensor<string, []>("x_441_cast_fp16")];
            tensor<int32, [3]> input_893_perm_0 = const()[name = tensor<string, []>("input_893_perm_0"), val = tensor<int32, [3]>([0, 2, 1])];
            tensor<fp16, [1, 3, 512]> input_893_cast_fp16 = transpose(perm = input_893_perm_0, x = x_441_cast_fp16)[name = tensor<string, []>("transpose_86")];
            tensor<fp16, [1, 3, 512]> input_895_cast_fp16 = add(x = input_879_cast_fp16, y = input_893_cast_fp16)[name = tensor<string, []>("input_895_cast_fp16")];
            tensor<int32, [1]> input_897_axes_0 = const()[name = tensor<string, []>("input_897_axes_0"), val = tensor<int32, [1]>([-1])];
            tensor<fp16, [512]> encoder_layers_16_norm_feed_forward2_weight_to_fp16 = const()[name = tensor<string, []>("encoder_layers_16_norm_feed_forward2_weight_to_fp16"), val = tensor<fp16, [512]>(BLOBFILE(path = tensor<string, []>("@model_path/weights/weight.bin"), offset = tensor<uint64, []>(208492992)))];
            tensor<fp16, [512]> encoder_layers_16_norm_feed_forward2_bias_to_fp16 = const()[name = tensor<string, []>("encoder_layers_16_norm_feed_forward2_bias_to_fp16"), val = tensor<fp16, [512]>(BLOBFILE(path = tensor<string, []>("@model_path/weights/weight.bin"), offset = tensor<uint64, []>(208494080)))];
            tensor<fp16, [1, 3, 512]> input_897_cast_fp16 = layer_norm(axes = input_897_axes_0, beta = encoder_layers_16_norm_feed_forward2_bias_to_fp16, epsilon = var_38_to_fp16, gamma = encoder_layers_16_norm_feed_forward2_weight_to_fp16, x = input_895_cast_fp16)[name = tensor<string, []>("input_897_cast_fp16")];
            tensor<fp16, [2048, 512]> encoder_layers_16_feed_forward2_linear1_weight_to_fp16 = const()[name = tensor<string, []>("encoder_layers_16_feed_forward2_linear1_weight_to_fp16"), val = tensor<fp16, [2048, 512]>(BLOBFILE(path = tensor<string, []>("@model_path/weights/weight.bin"), offset = tensor<uint64, []>(208495168)))];
            tensor<fp16, [1, 3, 2048]> linear_152_cast_fp16 = linear(bias = linear_1_bias_0_to_fp16, weight = encoder_layers_16_feed_forward2_linear1_weight_to_fp16, x = input_897_cast_fp16)[name = tensor<string, []>("linear_152_cast_fp16")];
            tensor<fp16, [1, 3, 2048]> input_901_cast_fp16 = silu(x = linear_152_cast_fp16)[name = tensor<string, []>("input_901_cast_fp16")];
            tensor<fp16, [512, 2048]> encoder_layers_16_feed_forward2_linear2_weight_to_fp16 = const()[name = tensor<string, []>("encoder_layers_16_feed_forward2_linear2_weight_to_fp16"), val = tensor<fp16, [512, 2048]>(BLOBFILE(path = tensor<string, []>("@model_path/weights/weight.bin"), offset = tensor<uint64, []>(210592384)))];
            tensor<fp16, [1, 3, 512]> linear_153_cast_fp16 = linear(bias = linear_2_bias_0_to_fp16, weight = encoder_layers_16_feed_forward2_linear2_weight_to_fp16, x = input_901_cast_fp16)[name = tensor<string, []>("linear_153_cast_fp16")];
            tensor<fp16, []> var_3736_to_fp16 = const()[name = tensor<string, []>("op_3736_to_fp16"), val = tensor<fp16, []>(0x1p-1)];
            tensor<fp16, [1, 3, 512]> var_3737_cast_fp16 = mul(x = linear_153_cast_fp16, y = var_3736_to_fp16)[name = tensor<string, []>("op_3737_cast_fp16")];
            tensor<fp16, [1, 3, 512]> input_cast_fp16 = add(x = input_895_cast_fp16, y = var_3737_cast_fp16)[name = tensor<string, []>("input_cast_fp16")];
            tensor<int32, [1]> audio_signal_axes_0 = const()[name = tensor<string, []>("audio_signal_axes_0"), val = tensor<int32, [1]>([-1])];
            tensor<fp16, [512]> encoder_layers_16_norm_out_weight_to_fp16 = const()[name = tensor<string, []>("encoder_layers_16_norm_out_weight_to_fp16"), val = tensor<fp16, [512]>(BLOBFILE(path = tensor<string, []>("@model_path/weights/weight.bin"), offset = tensor<uint64, []>(212689600)))];
            tensor<fp16, [512]> encoder_layers_16_norm_out_bias_to_fp16 = const()[name = tensor<string, []>("encoder_layers_16_norm_out_bias_to_fp16"), val = tensor<fp16, [512]>(BLOBFILE(path = tensor<string, []>("@model_path/weights/weight.bin"), offset = tensor<uint64, []>(212690688)))];
            tensor<fp16, [1, 3, 512]> audio_signal_cast_fp16 = layer_norm(axes = audio_signal_axes_0, beta = encoder_layers_16_norm_out_bias_to_fp16, epsilon = var_38_to_fp16, gamma = encoder_layers_16_norm_out_weight_to_fp16, x = input_cast_fp16)[name = tensor<string, []>("audio_signal_cast_fp16")];
            tensor<int32, [3]> obj_1_perm_0 = const()[name = tensor<string, []>("obj_1_perm_0"), val = tensor<int32, [3]>([0, 2, 1])];
            tensor<string, []> obj_1_cast_fp16_to_fp32_dtype_0 = const()[name = tensor<string, []>("obj_1_cast_fp16_to_fp32_dtype_0"), val = tensor<string, []>("fp32")];
            tensor<int32, []> obj_5_axis_0 = const()[name = tensor<string, []>("obj_5_axis_0"), val = tensor<int32, []>(0)];
            tensor<fp16, [17, 1, 70, 512]> obj_5_cast_fp16 = stack(axis = obj_5_axis_0, values = (var_332_cast_fp16, var_536_cast_fp16, var_740_cast_fp16, var_944_cast_fp16, var_1148_cast_fp16, var_1352_cast_fp16, var_1556_cast_fp16, var_1760_cast_fp16, var_1964_cast_fp16, var_2168_cast_fp16, var_2372_cast_fp16, var_2576_cast_fp16, var_2780_cast_fp16, var_2984_cast_fp16, var_3188_cast_fp16, var_3392_cast_fp16, cache_last_channel_cur_cast_fp16))[name = tensor<string, []>("obj_5_cast_fp16")];
            tensor<int32, []> obj_7_axis_0 = const()[name = tensor<string, []>("obj_7_axis_0"), val = tensor<int32, []>(0)];
            tensor<fp16, [17, 1, 512, 8]> obj_7_cast_fp16 = stack(axis = obj_7_axis_0, values = (var_431_cast_fp16, var_635_cast_fp16, var_839_cast_fp16, var_1043_cast_fp16, var_1247_cast_fp16, var_1451_cast_fp16, var_1655_cast_fp16, var_1859_cast_fp16, var_2063_cast_fp16, var_2267_cast_fp16, var_2471_cast_fp16, var_2675_cast_fp16, var_2879_cast_fp16, var_3083_cast_fp16, var_3287_cast_fp16, var_3491_cast_fp16, cache_last_time_cur_cast_fp16))[name = tensor<string, []>("obj_7_cast_fp16")];
            tensor<string, []> obj_7_cast_fp16_to_fp32_dtype_0 = const()[name = tensor<string, []>("obj_7_cast_fp16_to_fp32_dtype_0"), val = tensor<string, []>("fp32")];
            tensor<int32, [1]> var_3753 = add(x = cache_last_channel_len, y = max_audio_length_1)[name = tensor<string, []>("op_3753")];
            tensor<string, []> var_3753_promoted_to_fp16_dtype_0 = const()[name = tensor<string, []>("op_3753_promoted_to_fp16_dtype_0"), val = tensor<string, []>("fp16")];
            tensor<fp16, []> const_237_to_fp16 = const()[name = tensor<string, []>("const_237_to_fp16"), val = tensor<fp16, []>(-inf)];
            tensor<fp16, []> var_45_promoted_to_fp16 = const()[name = tensor<string, []>("op_45_promoted_to_fp16"), val = tensor<fp16, []>(0x1.18p+6)];
            tensor<fp16, [1]> var_3753_to_fp16 = cast(dtype = var_3753_promoted_to_fp16_dtype_0, x = var_3753)[name = tensor<string, []>("cast_184")];
            tensor<fp16, [1]> clip_1_cast_fp16 = clip(alpha = const_237_to_fp16, beta = var_45_promoted_to_fp16, x = var_3753_to_fp16)[name = tensor<string, []>("clip_1_cast_fp16")];
            tensor<string, []> var_3780_cast_fp16_to_fp32_dtype_0 = const()[name = tensor<string, []>("op_3780_cast_fp16_to_fp32_dtype_0"), val = tensor<string, []>("fp32")];
            tensor<string, []> cast_179_dtype_0 = const()[name = tensor<string, []>("cast_179_dtype_0"), val = tensor<string, []>("int32")];
            tensor<string, []> cast_180_dtype_0 = const()[name = tensor<string, []>("cast_180_dtype_0"), val = tensor<string, []>("int32")];
            tensor<int32, [1]> new_cache_last_channel_len = cast(dtype = cast_180_dtype_0, x = clip_1_cast_fp16)[name = tensor<string, []>("cast_181")];
            tensor<int32, [1]> encoded_length = cast(dtype = cast_179_dtype_0, x = clip_0_cast_fp16)[name = tensor<string, []>("cast_182")];
            tensor<fp32, [17, 1, 70, 512]> new_cache_last_channel = cast(dtype = var_3780_cast_fp16_to_fp32_dtype_0, x = obj_5_cast_fp16)[name = tensor<string, []>("cast_183")];
            tensor<fp32, [17, 1, 512, 8]> new_cache_last_time = cast(dtype = obj_7_cast_fp16_to_fp32_dtype_0, x = obj_7_cast_fp16)[name = tensor<string, []>("cast_185")];
            tensor<fp16, [1, 512, 3]> obj_1_cast_fp16 = transpose(perm = obj_1_perm_0, x = audio_signal_cast_fp16)[name = tensor<string, []>("transpose_85")];
            tensor<fp32, [1, 512, 3]> encoded_output = cast(dtype = obj_1_cast_fp16_to_fp32_dtype_0, x = obj_1_cast_fp16)[name = tensor<string, []>("cast_186")];
            tensor<fp32, [1, 128, 16]> new_pre_cache = cast(dtype = var_28_cast_fp16_to_fp32_dtype_0, x = var_28_cast_fp16)[name = tensor<string, []>("cast_192")];
        } -> (encoded_output, encoded_length, new_pre_cache, new_cache_last_channel, new_cache_last_time, new_cache_last_channel_len);
}